classifier_fold_3_shift_1_s5.pt (torch, 2454 bytes, 2 tensors)

encoder.0.weight f4 [9, 8]
00000000: eb22 cec0 ca83 51c1 d3ac 5b3f 5d89 0741
00000010: 7054 4ac0 2fe8 0fc0 f020 babe 6913 cd40
00000020: 4f87 ffbf 098a 3141 682c d93f b7b7 0540
00000030: 7e76 57c1 fb9d 96c0 0972 eebd 2359 c9c0
00000040: 6d47 84c0 30aa fb40 00ce b540 7d2e 1f41
00000050: 94c6 0e41 a1de e6c0 9a01 0dc0 b01f 1bc1
00000060: 4ba2 ccc0 4dfb 6541 ca68 5240 a548 87c0
00000070: 2e23 11c0 c552 3ec0 f62d 24be 79c3 91c0
00000080: 3894 52bf 8097 6dbf 0b55 40c0 8a69 d7c0
00000090: 916b 3b40 819b ec3f 2315 8040 9891 8440
000000a0: 7db5 dd3f 5681 07c1 6ac9 e2be 614c 8cc0
000000b0: 596b 8c41 f83c b440 8fb9 36bf 4b4f 2f41
000000c0: d3d9 01c1 d1eb 2b41 a582 0840 66c6 23c1
000000d0: af96 0341 7838 4e40 425f f33f e685 8b40
000000e0: 115c 0fc1 9458 77c0 dbdf 2340 af6b 93be
000000f0: f5e8 eb40 c902 2f41 683f 38c0 7b4a f33f
00000100: 4cda 8fc0 7316 2ac0 f5f2 94c0 7c5d d740
00000110: b7f4 a240 82fd 77c0 cb19 1a41 11d3 f5c0
-6.4417624 -13.094675 0.85810584 8.471036 -3.1614037 -2.2485464 -0.36353254 6.4086194
-1.9963168 11.0962 1.6966677 2.089338 -13.466429 -4.7067847 -0.11642844 -6.292131
-4.133719 7.864525 5.6813965 9.94885 8.923481 -7.2146764 -2.2032228 -9.695236
-6.394811 14.373853 3.2876458 -4.2276177 -2.2677722 -2.9738019 -0.16033158 -4.5551114
-0.82257414 -0.92809296 -3.0051906 -6.731633 2.9284403 1.8484956 4.00258 4.1427727
1.7321011 -8.469076 -0.44294292 -4.3843236 17.552416 5.6324425 -0.7137689 10.956859
-8.11568 10.745072 2.132974 -10.235937 8.224288 3.2221966 1.9013445 4.360095
-8.959977 -3.8647814 2.560538 -0.28793094 7.372187 10.93818 -2.87887 1.9007105
-4.4953976 -2.6576202 -4.654658 6.7301617 5.0923724 -3.874848 9.631297 -7.682015

classifer.0.weight f4 [9, 9]
00000000: 20c1 2dc0 0699 7940 1339 26c1 041f 4840
00000010: 7de1 c240 e12e cbc0 a303 7140 43f8 debf
00000020: a184 59c1 62ea 5140 9d73 b0c0 5472 9e3f
00000030: c7ce edc0 5fef c7bf bedc e740 d637 83c0
00000040: 24ec 1240 3a2b c140 dfe9 96c0 8295 c23f
00000050: 6354 3d40 75bb 0940 c317 80c0 a925 48c1
00000060: 9861 a940 7582 e6c0 0a7e 20c1 0460 3e40
00000070: b238 84bf 7811 b3c0 38e5 8cbf afb5 fb3f
00000080: 0990 18c0 56e4 813f 72fa 9ac0 3a7e 1741
00000090: 93c7 9640 8237 3440 85bb f53e cdbe 68c0
000000a0: 3582 12c1 aa21 8cc0 d7d4 ddc0 3ff9 9440
000000b0: 0b88 f8c0 52e0 1abf 78c6 be3f d772 3040
000000c0: c834 0240 0821 84c0 cbc8 30c1 163e 85c0
000000d0: 0366 56c1 2758 2040 73b9 34c0 4e43 47c0
000000e0: c361 aabe 11cf 7abe fbe0 ec3e b16c 9d40
000000f0: a6bf 6a40 1406 0e40 82a8 24c1 b952 32c1
00000100: 57d3 6040 a21f b240 7c5e 9040 8b95 febe
00000110: 4684 1540 c77d 07c1 ab5d f6c0 bd65 65c0
00000120: 9e5c 74c0 5beb 30c1 b453 08c1 e95f 9bc0
00000130: 17a0 0141 bbb9 f240 bbde c140 e089 e83f
00000140: d6d7 5041
-2.7149124 3.8999648 -10.388934 3.126893 6.0900254 -6.3494725 3.765847 -1.7419513
-13.59488 3.2799306 -5.514113 1.237864 -7.4314914 -1.5619925 7.245696 -4.100566
2.2956629 6.0365267 -4.7160487 1.5201876 2.9582756 2.1520665 -4.0029006 -12.509194
5.2931633 -7.203425 -10.030771 2.9746103 -1.0329802 -5.5958824 -1.1007452 1.966482
-2.3837912 1.0147808 -4.843072 9.468317 4.711862 2.815888 0.4799463 -3.6366456
-9.156789 -4.3791094 -6.9322314 4.6554255 -7.766607 -0.60498536 1.4904318 2.7570093
2.0344715 -4.129032 -11.049022 -4.163829 -13.399905 2.5053804 -2.823819 -3.113483
-0.3327771 -0.24493052 0.46265396 4.919518 3.6679473 2.219121 -10.29114 -11.145196
3.5128992 5.5663614 4.5115337 -0.49723467 2.3361983 -8.468207 -7.698934 -3.5843346
-3.818153 -11.05746 -8.520435 -4.855458 8.101584 7.585172 6.058439 1.8167076
13.052694
