classifier_POC_22_s4.pt (torch, 2342 bytes, 2 tensors)

encoder.0.weight f4 [9, 8]
-0.35375142 -0.64625144 5.210766 -0.071229324 1.5673177 1.2977153 0.62341493 2.8893857
4.8355083 1.4500203 2.390764 2.1098685 -2.2849565 -0.32222834 0.96439314 2.510048
-0.97490644 1.7997906 4.3375936 4.0081744 4.842309 4.527706 0.27378848 -5.090894
2.142362 16.034325 6.778665 -0.89050496 2.1418471 13.586475 -0.096452385 -9.385409
4.8070717 7.606927 -10.324275 -10.262859 1.8621653 5.3734317 -6.2000237 -8.681715
-31.73856 -18.166162 -1.7515211 -19.460068 -5.167236 -7.01409 -19.001074 -2.6525276
14.328317 2.859086 -6.814792 0.52479327 14.648362 -0.8318415 -1.9547739 3.4502506
5.766573 6.316531 -2.0993812 -3.1462379 1.9262391 -3.029834 7.544826 5.96658
-29.931032 -17.671223 -1.6268928 -23.126585 -14.059048 -8.868154 -12.782206 -0.7609412
00000000: e81e b5be bc70 25bf 98be a640 aee0 91bd
00000010: de9d c83f 891b a63f 1f98 1f3f b2eb 3840
00000020: 7cbc 9a40 449a b93f 4702 1940 1608 0740
00000030: ba3c 12c0 1dfb a4be 78e2 763f a0a4 2040
00000040: 7893 79bf 8a5f e63f 91cd 8a40 f742 8040
00000050: 32f4 9a40 f8e2 9040 012e 8c3e 9be8 a2c0
00000060: 761c 0940 4c46 8041 d3ea d840 22f8 63bf
00000070: 0614 0940 3462 5941 d488 c5bd a32a 16c1
00000080: 88d3 9940 f26b f340 3b30 25c1 ac34 24c1
00000090: 6f5b ee3f 27f3 ab40 9866 c6c0 4ee8 0ac1
000000a0: 92e8 fdc1 4d54 91c1 d831 e0bf 38ae 9bc1
000000b0: ff59 a5c0 6d73 e0c0 3302 98c1 03c3 29c0
000000c0: c940 6541 44fb 3640 c712 dac0 da58 063f
000000d0: b15f 6a41 91f3 54bf 0836 fabf e8d0 5c40
000000e0: c487 b840 0621 ca40 435c 06c0 f65b 49c0
000000f0: 018f f63f cde8 41c0 376f f140 39ee be40
00000100: c172 efc1 aa5e 8dc1 063e d0bf 3f03 b9c1
00000110: dcf1 60c1 f5e3 0dc1 ea83 4cc1 0bcd 42bf

classifer.0.weight f4 [9, 9]
-12.023494 -6.047898 -11.779903 -5.010969 3.918046 3.3749232 -6.227448 -12.887983
3.2790635 -2.0733066 -0.8294435 -2.9097936 1.1154068 -2.2335818 1.0269725 -0.41846806
-1.4365946 1.0494153 -4.3613586 -1.7714235 2.0653775 -10.262504 7.0537686 -1.1410484
-12.716826 3.6232898 -1.2675449 3.378276 -0.5007136 -5.083249 6.1855354 -5.604265
1.0338638 4.5420284 -5.0266533 0.44125476 2.2415974 5.1415 3.3357089 1.567876
-5.4796567 -1.6010896 2.8672695 4.356222 -1.2691265 2.3052218 1.3999497 2.3967946
-5.9179516 1.9870762 -1.3312252 -3.3750322 -0.64122397 -1.0612025 2.2844865 0.2973414
3.5582602 -6.4229712 3.1712222 -1.9267677 -7.605676 5.5860434 -1.8076028 -7.9473095
-12.548613 -8.435669 5.3406672 -6.444533 4.496477 4.5563574 -10.717698 4.4570913
14.942504 14.383281 14.578445 16.017424 -10.460401 -17.300516 16.434698 15.1258545
-17.115889
00000000: 3b60 40c1 6188 c1c0 7c7a 3cc1 dc59 a0c0
00000010: 44c1 7a40 befe 5740 4147 c7c0 2e35 4ec1
00000020: 2ddc 5140 0eb1 04c0 6956 54bf 0f3a 3ac0
00000030: a6c5 8e3f 01f3 0ec0 d673 833f 7241 d6be
00000040: 55e2 b7bf 3e53 863f 4090 8bc0 01be e2bf
00000050: 252f 0440 3733 24c1 79b8 e140 e00d 92bf
00000060: 1f78 4bc1 fbe3 6740 e93e a2bf ad35 5840
00000070: c42e 00bf faa9 a2c0 e8ef c540 2456 b3c0
00000080: a655 843f 4c58 9140 58da a0c0 25ec e13e
00000090: 5576 0f40 2b87 a440 417c 5540 29b0 c83f
000000a0: 5959 afc0 81f0 ccbf 5881 3740 2c66 8b40
000000b0: bd72 a2bf c188 1340 8d31 b33f 1565 1940
000000c0: dc5f bdc0 8358 fe3f 9665 aabf 8700 58c0
000000d0: 4127 24bf 7cd5 87bf 0735 1240 223d 983e
000000e0: 89ba 6340 fb88 cdc0 4ef5 4a40 53a0 f6bf
000000f0: b361 f3c0 dec0 b240 875f e7bf 5c50 fec0
00000100: 1ec7 48c1 80f8 06c1 bfe6 aa40 9d39 cec0
00000110: 24e3 8f40 aecd 9140 b17b 2bc1 7ea0 8e40
00000120: 7f14 6f41 eb21 6641 5041 6941 af23 8041
00000130: cd5d 27c1 7567 8ac1 437a 8341 8003 7241
00000140: 57ed 88c1
