classifier_fold_3_shift_6_s5.pt (torch, 2454 bytes, 2 tensors)

encoder.0.weight f4 [9, 8]
00000000: 5853 b0c0 ac3c 1dc0 b87f 1941 6951 4d41
00000010: 61bf 3c40 902b 1a3e 5d0e 13bf 2d34 dc40
00000020: 137e d040 0a82 0841 dfec bb40 906e 01c1
00000030: 96ed 57be f3eb cdc0 d6ab 3a40 9440 b0c0
00000040: 9aec c6c0 1835 2cc1 9163 943f d8e9 dcbf
00000050: 5e0a d43f a025 c13e ae12 d43f 762d a7c0
00000060: b84e b740 03bf 89c0 69d1 c1c0 1d16 ee3f
00000070: b3f2 cfc0 0ca8 fe3f 9030 c1c0 84ba cdbe
00000080: 1fb2 a040 9252 cebf 5461 94c1 c05d dcc0
00000090: efdd 92c0 b792 903f 6f48 ec3f c823 1040
000000a0: 5145 1841 0d98 0641 dbc4 9140 42af c440
000000b0: 432f 42bf 1201 5fc0 b383 17c0 d9ef adbf
000000c0: ef14 a0c0 3008 65c1 43c1 8dc1 8f10 3d40
000000d0: 3e30 0241 f662 a8bf 4f08 6141 ad77 8dc0
000000e0: 6209 5f40 1573 83c1 fd66 0641 03cc 13c0
000000f0: 5683 8ec0 3a80 19c0 8a63 3a3f cbfb 6dbf
00000100: c85c 883f 1058 4441 38c2 db40 d4e4 8741
00000110: ca17 9540 de64 e4bf f849 423f c48e fe40
-5.510174 -2.456828 9.593681 12.832376 2.9491808 0.1505568 -0.5744379 6.881369
6.51539 8.531748 5.872665 -8.089493 -0.21086726 -6.4350524 2.916738 -5.507883
-6.216382 -10.762962 1.1592885 -1.7258863 1.6565664 0.37724018 1.65682 -5.2242994
5.728359 -4.304567 -6.056813 1.8600498 -6.4983764 1.9895034 -6.037178 -0.40181363
5.0217433 -1.6118948 -18.547523 -6.886444 -4.5895915 1.1294774 1.8459605 2.252184
9.516923 8.412122 4.55528 6.146394 -0.75853366 -3.4844403 -2.3674133 -1.3588821
-5.0025554 -14.314499 -17.719366 2.9541357 8.136778 -1.31552 14.064528 -4.420859
3.4849477 -16.431192 8.400144 -2.309327 -4.453532 -2.3984513 0.72808135 -0.9296233
1.0653315 12.2715 6.8674583 16.986732 4.659154 -1.7843282 0.7589412 7.9549274

classifer.0.weight f4 [9, 9]
00000000: 00ab 4840 ba26 fdc0 7e9e 9e40 61be 34c1
00000010: 633a 01c1 b708 29c0 2ef9 5140 2bed b5c0
00000020: bce8 4c40 8a6b 97c0 8823 7040 c382 f5c0
00000030: 69c5 c53f f212 1d40 9d9e 6040 ee9d a1bf
00000040: db0f d6c0 b42e 053f a483 a63f 0f92 48c0
00000050: d21b a3bd 777b 14c0 a76a e4bf 2896 81c0
00000060: 5acd 7bbf bd73 b040 8228 9f3f 5fc6 1240
00000070: 59ac 5ec1 35c0 05c1 3c6e 4b40 7451 34c1
00000080: a107 8b40 dcab 863f 6ca7 b73f d683 d83f
00000090: ed15 03c0 46cd a240 7ab5 09c0 1c30 d2c0
000000a0: 8c7d b0bf bcff 0540 0ee2 67bd 8bf7 3240
000000b0: 3834 37bf 182c e13f 13e3 ddc0 12b2 80c0
000000c0: 9b88 843f 24d6 eb3f 1957 ebbe 5543 8e3f
000000d0: 62c0 c5c0 9257 853f 43ff c8c0 d601 1b3f
000000e0: 3846 ec40 b549 e840 692b 3840 dc88 68c0
000000f0: 2ac8 063f 3efd 6940 61a1 0fc1 f266 0740
00000100: b0d2 88c0 64ec 77c0 b339 34c1 d92b da40
00000110: 89ca 56c1 f509 3d40 530c 2dc1 1189 2240
00000120: cc4b a3bf 09b8 c240 f601 e340 3f18 7341
00000130: efdb 40c0 19c8 f340 4383 83c1 c062 a740
00000140: 2f19 f2c0
3.135437 -7.9109774 4.956847 -11.296479 -8.076755 -2.641157 3.2808337 -5.685201
3.201705 -4.7318773 3.7521687 -7.672212 1.545087 2.4542813 3.509681 -1.2626321
-6.6894355 0.5202439 1.3008924 -3.1339147 -0.07964291 -2.3200357 -1.7845048 -4.0495796
-0.98360217 5.514128 1.2434237 2.2933576 -13.917077 -8.359426 3.1786032 -11.269886
4.3446813 1.0521197 1.4347968 1.6915233 -2.0482132 5.087558 -2.1517015 -6.5683727
-1.3788314 2.0937338 -0.056612067 2.7963588 -0.71564054 1.7591581 -6.933969 -4.021737
1.0354189 1.8424726 -0.45964888 1.1114298 -6.179734 1.0417349 -6.28116 0.60549676
7.3835716 7.2589974 2.8776495 -3.6333532 0.52649176 3.6560817 -8.976899 2.1156583
-4.2757187 -3.8738031 -11.264087 6.8178525 -13.424447 2.9537327 -10.815509 2.5396159
-1.2757506 6.084965 7.0939894 15.193419 -3.0134237 7.618176 -16.439093 5.2308044
-7.565574
