classifier_fold_2_shift_3_s5.pt (torch, 2454 bytes, 2 tensors)

encoder.0.weight f4 [9, 8]
2.658294 8.624498 -0.37435663 0.17759708 -5.8355184 -2.338606 -3.5089262 1.3032235
3.0053766 4.8842554 -10.425964 1.6239945 -16.314775 0.64395183 12.516931 2.0536757
-3.9268084 4.3628526 -2.406408 7.2393656 -1.096268 1.9626397 -5.563155 -3.8379478
2.8285007 -0.5972819 -1.3662987 -8.1532345 -12.821025 -3.7246501 5.173463 -3.4191031
-5.7154417 -0.639598 -0.32274556 -11.104538 7.1455784 -3.897426 -8.8548565 2.6875854
0.9766942 4.6018224 9.500402 -19.489529 1.6395375 -18.246984 0.47028106 9.742011
0.0015240272 3.2804775 -3.5645828 -3.4805534 -9.854241 -1.6732022 0.855873 -1.9121518
5.67294 3.127819 3.0684292 7.5586886 -2.40036 3.1728897 2.4337604 4.295415
1.274056 -4.245044 12.594908 -0.5797736 1.527018 -1.5723644 -10.056368 -5.991035
00000000: 7d21 2a40 f2fd 0941 acab bfbe 02dc 353e
00000010: 91bc bac0 b9ab 15c0 3f92 60c0 07d0 a63f
00000020: 1758 4040 d24b 9c40 c0d0 26c1 0ddf cf3f
00000030: a984 82c1 07da 243f 5945 4841 6c6f 0340
00000040: d450 7bc0 7d9c 8b40 9702 1ac0 e2a8 e740
00000050: 8352 8cbf c737 fb3f 5e05 b2c0 f0a0 75c0
00000060: 2806 3540 77e7 18bf e0e2 aebf a673 02c1
00000070: eb22 4dc1 ab60 6ec0 028d a540 96d2 5ac0
00000080: e6e4 b6c0 b2bc 23bf e83e a5be 30ac 31c1
00000090: 94a8 e440 6d6f 79c0 7ead 0dc1 6601 2c40
000000a0: a208 7a3f 2142 9340 a601 1841 8eea 9bc1
000000b0: 5ddc d13f d3f9 91c1 aec8 f03e 47df 1b41
000000c0: dec1 c73a 58f3 5140 2022 64c0 63c1 5ec0
000000d0: f9aa 1dc1 7d2b d6bf 7e1a 5b3f 64c1 f4bf
000000e0: b988 b540 302e 4840 2561 4440 c7e0 f140
000000f0: 809f 19c0 a010 4b40 bbc2 1b40 0a74 8940
00000100: 4414 a33f 67d7 87c0 be84 4941 0b6c 14bf
00000110: 5375 c33f 3d43 c9bf e2e6 20c1 8fb6 bfc0

classifer.0.weight f4 [9, 9]
-18.035608 6.1879754 -12.990347 2.6593683 -2.0096614 3.6462724 -12.932429 5.4880576
-11.061733 2.303986 -6.2943616 -3.9426224 -17.393984 9.428851 2.5205133 -15.628242
3.0803633 -1.9883407 -0.20973739 2.173837 -8.905613 2.516121 3.2893097 -1.6778624
0.16825214 -0.11369601 -13.573182 -2.7811859 2.3909261 9.483459 -10.785009 -12.635911
-2.3406396 0.6704623 2.1348836 -13.452933 1.9959209 -9.090019 -7.229291 1.8712939
-0.8158751 -2.5811682 -2.127955 0.5251892 8.408759 2.515326 2.4329374 -8.108372
-6.819399 -7.3997536 3.2882867 -1.2057 1.6458464 -1.5106007 -5.9854283 -4.448029
-1.0805093 4.452429 3.8547797 3.6741016 7.4572735 -8.483307 2.2458794 3.8942926
0.5645935 0.88612485 5.8995795 -12.461261 -2.4309819 2.1603723 -1.4036077 -9.376916
-0.070068836 -2.3312092 10.178609 4.482636 -1.44844 -11.819346 6.1094017 -6.779618
7.7402844
00000000: ed48 90c1 e503 c640 76d8 4fc1 1733 2a40
00000010: 4b9e 00c0 875c 6940 3beb 4ec1 2b9e af40
00000020: dcfc 30c1 8274 1340 696b c9c0 ed53 7cc0
00000030: e126 8bc1 93dc 1641 1750 2140 470d 7ac1
00000040: ac24 4540 f381 febf 66c5 56be 2520 0b40
00000050: 647d 0ec1 2008 2140 0d84 5240 32c4 d6bf
00000060: 4a4a 2c3e 74d9 e8bd c12b 59c1 f3fe 31c0
00000070: ef04 1940 40bc 1741 668f 2cc1 b12c 4ac1
00000080: 0acd 15c0 6ba3 2b3f efa1 0840 373f 57c1
00000090: 567a ff3f b870 11c1 5a56 e7c0 8f86 ef3f
000000a0: 31dd 50bf dc31 25c0 6a30 08c0 cd72 063f
000000b0: 478a 0641 1afb 2040 3fb5 1b40 e4bb 01c1
000000c0: 8438 dac0 c8ca ecc0 4a73 5240 6154 9abf
000000d0: 18ab d23f 5d5b c1bf a188 bfc0 4156 8ec0
000000e0: 214e 8abf 4c7a 8e40 b6b4 7640 7b24 6b40
000000f0: fca1 ee40 a0bb 07c1 7dbc 0f40 173c 7940
00000100: 3389 103f 14d9 623f 5bc9 bc40 5361 47c1
00000110: 3595 1bc0 8a43 0a40 6ba9 b3bf d907 16c1
00000120: 4080 8fbd 8832 15c0 95db 2241 c171 8f40
00000130: 7b66 b9bf 0b1c 3dc1 3880 c340 a1f2 d8c0
00000140: 69b0 f740
