classifier_fold_2_shift_5_app1.pt (torch, 2466 bytes, 2 tensors)

encoder.0.weight f4 [9, 8]
0	0xc11e36db	-9.888392
1	0x3f7c893a	0.9864689
2	0xbdff1eae	-0.124570236
3	0x40633ba8	3.5505161
4	0x409b9b3e	4.8627005
5	0xc0bf0064	-5.9687977
6	0x3f6b4fd5	0.9191869
7	0xc0b5807d	-5.6719346
8	0x40900343	4.500398
9	0xbf9dded3	-1.2333626
10	0xbfaccea3	-1.350056
11	0x3f648570	0.8926611
12	0xc1020ffc	-8.128902
13	0xc0214673	-2.5199249
14	0xc08b7c85	-4.35895
15	0xbe008ac1	-0.1255293
16	0xc0acbd7b	-5.39813
17	0xbfac0339	-1.3438483
18	0xc11522b4	-9.320972
19	0xbd073428	-0.033008724
20	0x3ff9ce3d	1.9516064
21	0xc0671b79	-3.6110518
22	0x40d190f3	6.548944
23	0x4033ff18	2.8124447
24	0xc01ea09b	-2.4785526
25	0xc09e7b0e	-4.9525213
26	0x3f96e1d3	1.1787666
27	0x40bd496d	5.915213
28	0x40c6b932	6.210107
29	0x41036626	8.212439
30	0x405f3dfb	3.488158
31	0xc0cbca17	-6.368419
32	0xc12524c5	-10.321477
33	0x4027d8da	2.6226106
34	0xc09a67ba	-4.825162
35	0x405d62f2	3.4591641
36	0xc051d68d	-3.2787201
37	0xc132840c	-11.157238
38	0x40969558	4.7057304
39	0xc0e1f691	-7.0613484
40	0x408fea28	4.4973335
41	0x401521bd	2.3301842
42	0x40e563a3	7.1684127
43	0x40fff12e	7.998191
44	0xc12e52b7	-10.895194
45	0xc0cc8a60	-6.3918915
46	0xc10597cc	-8.34956
47	0xc09d4b9f	-4.915481
48	0x413d6910	11.83815
49	0xc00ca3e6	-2.1975036
50	0x4011ad61	2.2762072
51	0xc002ed47	-2.0457323
52	0xbf10d8d1	-0.56580836
53	0x4134f187	11.308967
54	0xbfc9d836	-1.5769107
55	0x41047361	8.278169
56	0x3f6011a9	0.8752695
57	0xc017da64	-2.3727045
58	0xbfafc049	-1.3730556
59	0xbf873087	-1.0561684
60	0x4142e7c3	12.181582
61	0x41314f0f	11.081801
62	0x4092a9e6	4.5832396
63	0x40c93bc1	6.288544
64	0xc06c24be	-3.6897426
65	0x40c342e2	6.1019144
66	0xc0d7293e	-6.7237844
67	0x40f86f7e	7.76361
68	0x40e32f96	7.099559
69	0xc146b3bf	-12.418883
70	0xbfe53cf8	-1.7909231
71	0xc145e7f4	-12.369129

classifer.0.weight f4 [9, 9]
0	0xc0a5d8a6	-5.1826963
1	0x3ff18fe4	1.8872037
2	0x40febd17	7.9605823
3	0xc15513f0	-13.317368
4	0xc0a6d2f9	-5.2132535
5	0xc0920f73	-4.564386
6	0x40447e04	3.0701914
7	0x407c9694	3.9466906
8	0xc0cefacd	-6.4681153
9	0x40ebde01	7.37085
10	0xc167eca9	-14.495278
11	0xc11dcd8f	-9.862685
12	0x3fd95a62	1.6980708
13	0x40f2a691	7.582833
14	0x3ffd728d	1.9800583
15	0xc175722e	-15.340376
16	0xc105e1a4	-8.367588
17	0x40037366	2.0539184
18	0xc1376af1	-11.463609
19	0x409ae9b5	4.8410287
20	0x4077f158	3.8741055
21	0x3ef13ef8	0.47118354
22	0xbf945a9e	-1.1590154
23	0xbf0144f6	-0.5049585
24	0x408ebc0b	4.4604545
25	0xc09998ff	-4.7999263
26	0x3fe4da82	1.7879183
27	0xc04c8d55	-3.1961262
28	0xc09be983	-4.872255
29	0xbe340c3d	-0.17582794
30	0x40f87551	7.764321
31	0xc0dc6e48	-6.888462
32	0xc0af9e0a	-5.488042
33	0x403d70c2	2.9600072
34	0x405e5f4c	3.4745665
35	0xc03a3ce1	-2.9099658
36	0x3ebf2f15	0.37340608
37	0xc08ea3d5	-4.457499
38	0xc0e6f67e	-7.2175894
39	0xc104c693	-8.29848
40	0x40083f54	2.1288652
41	0x3fa42128	1.2822618
42	0xc03a9ecc	-2.9159422
43	0x3f1b3d55	0.6064046
44	0x404da4f7	3.2131937
45	0xc0946d06	-4.6383085
46	0x3eb1a158	0.34693408
47	0xc14c3af3	-12.764392
48	0xc0cd4360	-6.4144745
49	0xc12eb877	-10.920035
50	0x3fb60a2a	1.4221852
51	0x4047b5ea	3.1204782
52	0x40babff6	5.8359327
53	0x3e7375db	0.23775427
54	0x3ff8103e	1.9379957
55	0x40039181	2.0557559
56	0x40d9a039	6.8008084
57	0x3fe1ddeb	1.7645849
58	0x40873a76	4.2258863
59	0x3ef0fe55	0.4706904
60	0xc09b4cf3	-4.853143
61	0xc0eda519	-7.4264035
62	0x3ffa2a6f	1.95442
63	0xc028db39	-2.6383803
64	0x40eaead5	7.341166
65	0xc0e6718f	-7.201362
66	0xc1047290	-8.277969
67	0xc1082d44	-8.511051
68	0x410adb22	8.678499
69	0x40b0bf05	5.523318
70	0xc0c61f08	-6.191288
71	0xc16fa056	-14.9766445
72	0x40a6624f	5.1995006
73	0x4084338d	4.131293
74	0x413f2e3d	11.948789
75	0x41344132	11.265917
76	0x40a6843d	5.2036424
77	0xc107be57	-8.48397
78	0xc08714a5	-4.22127
79	0xbf8d9c89	-1.1063396
80	0xc116b39a	-9.418848
