classifier_POC_fold_2_s3.pt (torch, 2348 bytes, 2 tensors)

encoder.0.weight f4 [9, 8]
0	0xc0578f48	-3.3681202
1	0xc05cb027	-3.4482515
2	0xc0d89cc5	-6.769137
3	0x4067a5cb	3.6194942
4	0xc0d22164	-6.566576
5	0x40455712	3.0834394
6	0xbf82a69d	-1.0207096
7	0xc10f3f0e	-8.952894
8	0x40fc650b	7.8873343
9	0x4193a209	18.454119
10	0xc11ec586	-9.9232235
11	0x41981db7	19.01451
12	0x4099636d	4.793387
13	0xc088d36d	-4.275809
14	0x41a198eb	20.199667
15	0xc0c5d276	-6.181941
16	0xc1986e03	-19.053717
17	0xc0b6b615	-5.709727
18	0x4010e5e2	2.264031
19	0x3fb9c63b	1.451362
20	0xc169310b	-14.574473
21	0x40920953	4.563638
22	0x41156aec	9.338604
23	0xc0dea681	-6.957825
24	0xc0ac25fa	-5.379636
25	0x413b617c	11.7113
26	0xc0be2a57	-5.9426684
27	0xc1616a65	-14.088475
28	0x3feafcdb	1.8358415
29	0xc05fbd91	-3.4959452
30	0x3fbae068	1.4599733
31	0x3f48d246	0.7844585
32	0xc0e0337b	-7.006284
33	0xbf4234a2	-0.7586156
34	0xbfbb8d2d	-1.4652458
35	0xc066efc8	-3.608385
36	0xc0639897	-3.5561883
37	0xc06edf93	-3.732396
38	0x3eef8077	0.46777698
39	0xc01f4add	-2.4889443
40	0x3d84ed63	0.064905904
41	0x4105920d	8.348157
42	0x40c6c0bc	6.211027
43	0xc13958fb	-11.584224
44	0x404a4ba3	3.1608665
45	0x41af9cae	21.951504
46	0x419953a4	19.16584
47	0xc135ea18	-11.369652
48	0x4171edd4	15.1205635
49	0xc0ffdf7a	-7.99603
50	0x412a2a66	10.635351
51	0xc1634d46	-14.206366
52	0x4137a205	11.477056
53	0x400519de	2.0797038
54	0x41ded31a	27.853077
55	0x402732cf	2.612476
56	0x412682f0	10.406967
57	0xc0f6cd9c	-7.712599
58	0xc13dbacf	-11.858108
59	0xbde19c6d	-0.11016164
60	0xc013d82f	-2.3100698
61	0x40ae6ce5	5.450793
62	0x3f787e4e	0.97067726
63	0xc13ca4ec	-11.790264
64	0x40c3973f	6.1122127
65	0x4072bff6	3.7929664
66	0xc103a014	-8.226582
67	0xc166451b	-14.391871
68	0x40b0a47b	5.520078
69	0x40805e52	4.0115137
70	0xc1065924	-8.396763
71	0xc1695ec7	-14.585639

classifer.0.weight f4 [9, 9]
0	0xc1f62182	-30.766361
1	0x412c8f9d	10.785062
2	0x4049ff5a	3.1562104
3	0xc179191c	-15.56863
4	0xc12d991b	-10.849879
5	0x408604e2	4.188096
6	0xc056e95a	-3.3579926
7	0xc109e398	-8.618065
8	0x40a4a5bd	5.1452317
9	0xc08aedb1	-4.341515
10	0xc10669ff	-8.400878
11	0x40bdd253	5.9319243
12	0x41698671	14.595323
13	0xc1b6be90	-22.843048
14	0xc10a17c4	-8.630802
15	0x40bd3ca4	5.9136524
16	0x41215918	10.084251
17	0xc0c43cec	-6.1324368
18	0x4123614f	10.211257
19	0xc0bf2df6	-5.9743605
20	0xc1914e47	-18.163221
21	0x401ac773	2.4184234
22	0xc0c3b27a	-6.1155367
23	0x411d493e	9.830381
24	0xc0412c05	-3.0183117
25	0xbe919231	-0.28431848
26	0xc15db8e0	-13.8576355
27	0xc1a75e7a	-20.921131
28	0x40f32cc6	7.5992155
29	0x41d75046	26.914196
30	0xc0a84653	-5.2585845
31	0xbfba287f	-1.4543608
32	0xc1b0e081	-22.109621
33	0x3f49b7e4	0.7879622
34	0xc05ef21b	-3.483527
35	0x41bfaef5	23.960428
36	0xc0b6dee3	-5.714708
37	0xc0cb22e7	-6.3480105
38	0xc16cba83	-14.795535
39	0x3ec920a7	0.39282724
40	0x41a6cd12	20.850132
41	0x40879d74	4.2379704
42	0xc04916f2	-3.1420255
43	0x411254eb	9.145732
44	0xc13b818b	-11.719127
45	0xc1307692	-11.028948
46	0x40ca29a5	6.3175836
47	0x404efa0a	3.2340112
48	0xc11b2b82	-9.698122
49	0xc09536e8	-4.6629524
50	0xc00fa2ca	-2.2443109
51	0x3fe00e04	1.7504277
52	0xc117e098	-9.492332
53	0x40bb8185	5.8595605
54	0x4197c5f2	18.971653
55	0xc11fffa4	-9.999912
56	0xc18e3161	-17.77411
57	0x40613b67	3.5192506
58	0x416c999b	14.787501
59	0x3f6d34ab	0.9265849
60	0x3f748ded	0.9552906
61	0x3f0c64c4	0.54841256
62	0xc133cd86	-11.237677
63	0x419a2fff	19.273436
64	0x40808c03	4.0170913
65	0xc00f9948	-2.2437305
66	0xc0c422d9	-6.129254
67	0xc2299e2e	-42.404472
68	0x4091c582	4.55536
69	0x405b5deb	3.4276073
70	0xc1c3a23b	-24.454214
71	0xbff75b34	-1.9324708
72	0x41af06dc	21.87835
73	0xc173bc4b	-15.23347
74	0x41c7effd	24.992182
75	0x416b900c	14.722668
76	0x420540cc	33.31328
77	0xc1c59317	-24.696821
78	0xc1ab657e	-21.424557
79	0x41259236	10.348196
80	0x40db633a	6.8558626
