classifier_limit_data.pt (torch, 2348 bytes, 2 tensors)

encoder.0.weight f4 [9, 8]
0	0xc0775459	-3.8645232
1	0xbfd4563e	-1.6588819
2	0x3fb489fc	1.410461
3	0xc100413f	-8.015929
4	0xc109983d	-8.599668
5	0x3fd2b5b0	1.6461697
6	0xc08f788d	-4.4834657
7	0x4137cd11	11.487565
8	0x402e150e	2.720035
9	0x4057da33	3.3726928
10	0x40cb18fb	6.3467994
11	0x3f253abe	0.6454276
12	0x402ece48	2.7313404
13	0x41520db6	13.128347
14	0xc0c2d925	-6.089007
15	0xc151ffcd	-13.124951
16	0x410cab9d	8.791898
17	0x3fdd53b9	1.7291175
18	0xc0e117e3	-7.034166
19	0x40fdc6a5	7.9304986
20	0xc0b30cf3	-5.5953307
21	0xc0eb11aa	-7.3459063
22	0xbf9ba168	-1.2158632
23	0x41679e0b	14.476085
24	0xbfc49dc9	-1.5360652
25	0x3f9f8814	1.2463403
26	0x3fa94110	1.322298
27	0x4082c2fa	4.086301
28	0x40fa8d86	7.829776
29	0xc0a96a20	-5.2942047
30	0xc0ca63f3	-6.324701
31	0xc0c90310	-6.281624
32	0xbfe231f4	-1.7671494
33	0xc0722ea6	-3.7840972
34	0xc0d0fa76	-6.530574
35	0xc0813592	-4.0377893
36	0x40a01e76	5.0037184
37	0x4088ee46	4.279086
38	0xc047cfb9	-3.1220534
39	0x40c5d15a	6.1818056
40	0xc0fefc19	-7.9682736
41	0xc186c79e	-16.84747
42	0xc00aaa11	-2.16663
43	0x40aac5f7	5.3366656
44	0x41b25560	22.291687
45	0x40a7937d	5.236754
46	0xc168f3b0	-14.559494
47	0xc1363e2e	-11.390181
48	0xc094be1e	-4.6482077
49	0xc090c5b6	-4.5241346
50	0xc078f1a6	-3.889749
51	0xc00578eb	-2.0855052
52	0xc0998035	-4.7969003
53	0xc0b5f897	-5.6865954
54	0x40fe854e	7.9537725
55	0x411212c6	9.129583
56	0x3e824b41	0.2544804
57	0xc03b4781	-2.9262393
58	0x4027db07	2.6227434
59	0x414db8d4	12.857624
60	0x401779df	2.3668134
61	0xbdcf5d07	-0.101251654
62	0xc02207da	-2.5317292
63	0x4126942d	10.411176
64	0x40b1a71f	5.5516505
65	0x40bfcc0b	5.9936576
66	0x4095f6ac	4.6863613
67	0x40ed67bd	7.4189134
68	0x413f9e5e	11.976164
69	0xc04e790a	-3.2261376
70	0xbf9f54a4	-1.2447705
71	0xc0cd180e	-6.4091864

classifer.0.weight f4 [9, 9]
0	0xc11a8b88	-9.659065
1	0x4042279c	3.0336676
2	0x404b4c30	3.176525
3	0x3fba84bc	1.4571757
4	0xc0f8ac98	-7.7710686
5	0x3fff9553	1.9967445
6	0xbf2925c9	-0.6607328
7	0xc09f1f44	-4.9725666
8	0x40fbedc6	7.872775
9	0x408cd2bb	4.400724
10	0xc0f4743f	-7.63919
11	0xc105ccd0	-8.362503
12	0xc095a1e7	-4.6760135
13	0x4062c5c1	3.54332
14	0xbea07c3b	-0.3134478
15	0x41148348	9.282051
16	0xc167aab8	-14.479179
17	0xc10ee6e2	-8.931368
18	0xc10b8690	-8.720352
19	0x405aed11	3.4207194
20	0xbf81cd82	-1.0140841
21	0xbf8904d3	-1.0704597
22	0x4014d3a9	2.3254187
23	0xbfa251d0	-1.2681217
24	0xc0b3a574	-5.613947
25	0x401cf817	2.4526422
26	0x40b009bb	5.501188
27	0x41622e8e	14.136366
28	0x3fbac2f2	1.4590743
29	0xc1130b5c	-9.190273
30	0xc00bc218	-2.1837215
31	0xc01484d9	-2.3206084
32	0x3f501f5a	0.8129784
33	0xc107f6ea	-8.497782
34	0xc0d49a28	-6.643818
35	0xc100fb65	-8.061376
36	0xc06cc347	-3.6994188
37	0xc0423682	-3.034577
38	0x40c0dba8	6.0268135
39	0xc0880272	-4.2502985
40	0xbfb8a291	-1.4424611
41	0x40c79f94	6.2382298
42	0xbf59a6ba	-0.8502003
43	0x3f9590c2	1.1684802
44	0xc011a441	-2.2756503
45	0xc025c664	-2.5902338
46	0x3fc05729	1.5026599
47	0x3aa1c52a	0.0012342085
48	0x40afbcc2	5.4917917
49	0x40739689	3.806063
50	0x3d4e6ffe	0.050399773
51	0xc124933f	-10.285949
52	0xc111da3f	-9.115783
53	0xc05bc12c	-3.4336653
54	0xc021e13f	-2.529373
55	0xc02d9150	-2.7119942
56	0xc14b1767	-12.693213
57	0x4014ebf5	2.3269017
58	0x4029382b	2.6440532
59	0xc02c5036	-2.6923957
60	0x408eb4d1	4.4595723
61	0x40860aae	4.1888037
62	0xc055b794	-3.3393297
63	0xc08ae631	-4.3405995
64	0x3fbf64a7	1.4952592
65	0xc0eda88b	-7.426824
66	0x40cffde7	6.499744
67	0xc1046669	-8.2750025
68	0x4032de5c	2.7948217
69	0x3f897ba0	1.0740852
70	0x3e88e9ba	0.2674082
71	0xc0e05ecd	-7.0115724
72	0x40da8646	6.828891
73	0xbfb6e8df	-1.4289817
74	0x41308146	11.031561
75	0xc0e8b00e	-7.271491
76	0xc07deb90	-3.9675026
77	0xc15bd994	-13.74062
78	0x409b037a	4.8441744
79	0x3ff705f1	1.9298688
80	0x40a65ef5	5.1990914
