classifier_fold_3_shift_7.pt (torch, 2436 bytes, 2 tensors)

encoder.0.weight f4 [9, 8]
-6.2480025 3.7583911 -10.038043 -4.292763 0.78287065 4.0204883 -1.131641 8.064981
-9.740212 -3.8228862 1.4938282 -6.7182055 8.346374 -0.065500595 -2.2212853 -11.13596
-6.5033765 11.835435 8.085514 4.379173 7.4936137 -2.9717515 6.0742774 -5.853255
7.4245343 -6.7393007 -7.803124 -4.062607 -3.537756 1.4035456 -5.7554717 3.2618034
-10.561904 -9.9893875 3.031413 -8.04577 6.8151417 3.159279 0.87312734 -5.194341
5.912095 4.449926 2.682341 8.135563 -7.37966 -1.8408377 4.177305 7.608077
-4.4755926 -6.2491784 4.472676 2.77307 -0.5271183 -0.99199563 -2.3016248 1.5586619
6.0422597 2.0437748 -0.1708092 8.068894 -0.7143079 -4.335064 -5.4446235 -7.0495844
2.6297786 -9.56403 6.916329 -0.5880652 -1.8126903 -1.3199631 -3.4134989 -4.411456
00000000: a3ef c7c0 7b89 7040 d39b 20c1 515e 89c0
00000010: 366a 483f d7a7 8040 9dd9 90bf 2a0a 0141
00000020: e9d7 1bc1 2baa 74c0 c335 bf3f 8afb d6c0
00000030: bf8a 0541 2d25 86bd 8a29 0ec0 e42c 32c1
00000040: a91b d0c0 f15d 3d41 445e 0141 2f22 8c40
00000050: afcb ef40 2d31 3ec0 7b60 c240 dd4d bbc0
00000060: c995 ed40 5aa8 d7c0 31b3 f9c0 e000 82c0
00000070: 986a 62c0 62a7 b33f d32c b8c0 63c1 5040
00000080: 8ffd 28c1 88d4 1fc1 ac02 4240 79bb 00c1
00000090: a415 da40 a131 4a40 4685 5f3f 0b38 a6c0
000000a0: e22f bd40 cb65 8e40 7aab 2b40 442b 0241
000000b0: 2d26 ecc0 92a0 ebbf 7cac 8540 5e75 f340
000000c0: 0e38 8fc0 45f9 c7c0 2920 8f40 fb79 3140
000000d0: 3af1 06bf 6df3 7dbf d24d 13c0 3c82 c73f
000000e0: 315a c140 35cd 0240 9be8 2ebe 311a 0141
000000f0: e2dc 36bf d8b8 8ac0 5b3a aec0 3296 e1c0
00000100: 4b4e 2840 4406 19c1 9152 dd40 718b 16bf
00000110: 3c06 e8bf 8df4 a8bf c476 5ac0 a62a 8dc0

classifer.0.weight f4 [9, 9]
9.131056 -5.9775486 -10.693155 6.796329 0.18403472 0.56083006 -1.1773785 -9.095306
-8.901814 -1.4606382 6.3253484 7.9137416 -4.029664 0.8061985 -13.671634 -7.2392135
1.5065061 -10.118368 2.602568 -11.938087 -2.3936527 4.572665 2.065814 5.108675
-8.177282 3.3558695 -8.108955 1.267059 7.031861 -8.097748 -0.16633502 3.2551591
-9.094966 -7.410713 -10.849315 3.476768 -2.2303398 -2.5876615 -2.2742856 -2.2064345
-9.281173 4.928834 6.3887467 1.1099887 4.8175263 1.5482708 3.2223413 -9.800343
1.826314 -2.4684303 -15.532419 2.687764 1.0303286 0.13257498 -0.13800585 -3.5196674
7.9647565 -4.7108083 -10.218736 3.8621068 -2.8442988 3.2990386 -8.941149 -12.657092
-3.3644407 -15.420996 5.1985974 -0.24735692 1.2993838 -1.499074 0.21210577 9.614369
-8.172357 0.9139629 -2.0564568 -8.388753 11.02167 6.337386 6.9268584 -9.513453
5.220252
00000000: ce18 1241 1448 bfc0 2a17 2bc1 877b d940
00000010: 9973 3c3e 8f92 0f3f 57b4 96bf 6086 11c1
00000020: d56d 0ec1 31f6 babf 4169 ca40 5f3d fd40
00000030: 02f3 80c0 0663 4e3f 03bf 5ac1 a3a7 e7c0
00000040: 31d5 c03f d6e4 21c1 7990 2640 6802 3fc1
00000050: 9b31 19c0 4653 9240 4c36 0440 447a a340
00000060: 26d6 02c1 91c6 5640 48be 01c1 fd2e a23f
00000070: 0105 e140 6090 01c1 ba53 2abe 8754 5040
00000080: fb84 11c1 9024 edc0 cb96 2dc1 5e83 5e40
00000090: e3bd 0ec0 3f9c 25c0 e58d 11c0 3936 0dc0
000000a0: af7f 14c1 02b9 9d40 9d70 cc40 1c14 8e3f
000000b0: 2d29 9a40 bd2d c63f d73a 4e40 34ce 1cc1
000000c0: a8c4 e93f c3fa 1dc0 ca84 78c1 5304 2c40
000000d0: cfe1 833f bcc1 073e 6851 0dbe 3b42 61c0
000000e0: 49df fe40 f1be 96c0 f17f 23c1 c22c 7740
000000f0: fe08 36c0 7323 5340 f20e 0fc1 7383 4ac1
00000100: ff52 57c0 66bc 76c1 e95a a640 224b 7dbe
00000110: 3552 a63f a8e1 bfbf 4132 593e 75d4 1941
00000120: f9c1 02c1 79f9 693f fd9c 03c0 5538 06c1
00000130: c358 3041 decb ca40 d3a8 dd40 1a37 18c1
00000140: 4e0c a740
