classifier_fold_1_shift_8_app1_full_features.pt (torch, 2614 bytes, 2 tensors)

encoder.0.weight f4 [9, 8]
1.2504398 -1.9714683 4.3864307 3.7060277 -2.182507 -2.4332786 -4.8704314 1.1475856
-0.7911048 -3.0536802 0.5363044 3.7922044 6.680811 2.7304552 8.581296 4.216878
-2.297623 -2.039563 2.2236478 7.9252133 1.0054624 -3.3724885 1.9949907 -8.486663
3.8584583 -3.1529047 -4.177974 -4.0985284 -3.2353337 -6.046792 -6.553722 4.728224
0.74732447 2.4469128 -0.86194813 0.39193937 7.736397 6.3817763 -3.0411527 -4.5140734
0.5014373 -0.71863925 1.2807422 2.682142 -4.097307 -5.911704 8.263533 1.5326865
-2.6778204 -7.7294245 2.1043506 1.9619609 -3.892633 -1.8072453 1.250802 3.8202238
-1.9506136 -12.84869 -2.8627422 1.0299065 -3.6296854 2.9417162 5.874925 -8.287073
1.8852232 0.018988378 -5.349713 -8.161068 1.8452973 0.33984435 -0.61297584 1.1774986
00000000: 690e a03f 1359 fcbf a45d 8c40 8f2f 6d40
00000010: 32ae 0bc0 d6ba 1bc0 93da 9bc0 16e4 923f
00000020: d885 4abf 7f6f 43c0 3f4b 093f 7ab3 7240
00000030: 34c9 d540 c7bf 2e40 fd4c 0941 aaf0 8640
00000040: 410c 13c0 3388 02c0 3f50 0e40 599b fd40
00000050: feb2 803f dad6 57c0 db5b ff3f 5fc9 07c1
00000060: fbf0 7640 31c9 49c0 f7b1 85c0 2527 83c0
00000070: b50f 4fc0 527f c1c0 17b8 d1c0 9c4d 9740
00000080: a850 3f3f 389a 1c40 a2a8 5cbf 47ac c83e
00000090: 9090 f740 8337 cc40 3fa2 42c0 4a73 90c0
000000a0: 325e 003f bef8 37bf 5cef a33f 37a8 2b40
000000b0: 241d 83c0 ae2c bdc0 6e37 0441 122f c43f
000000c0: 6961 2bc0 7257 f7c0 aead 0640 8921 fb3f
000000d0: e620 79c0 d053 e7bf 481a a03f 8c7e 7440
000000e0: b5ad f9bf 3c94 4dc1 2b37 37c0 fad3 833f
000000f0: c44c 68c0 1445 3c40 63ff bb40 da97 04c1
00000100: fe4e f13f 848d 9b3c d930 abc0 bc93 02c1
00000110: b432 ec3f 1400 ae3e fceb 1cbf 46b8 963f

classifer.0.weight f4 [9, 9]
-8.361347 0.8307595 -4.997512 2.9900024 -6.980215 2.6298954 2.274805 -4.202137
6.4465165 3.3761146 -10.097059 2.6290607 -6.486537 4.778579 -3.4350574 -8.823154
-3.623911 -6.098393 3.5064647 -6.714478 -9.444523 5.388286 -3.687505 5.247575
-8.833706 -3.2027671 -4.9417396 -6.18215 4.4476547 -5.820251 -7.9511657 4.0031676
-8.4959955 -4.4146504 -1.6041903 5.091525 -0.46294984 6.2437243 2.8499358 -6.1978073
0.0979173 1.387886 -8.52136 -4.4867496 -6.21674 1.0129957 0.7849627 -3.455581
6.2206373 2.2246902 -7.985447 -2.5823634 -3.5989935 0.71847254 0.087970026 -6.4896874
7.0846615 2.1471584 -6.904064 -0.34169254 6.232863 -8.222692 -1.7914944 1.3664236
6.9935904 -10.373635 -3.4243348 -7.825615 2.0068362 4.7950296 -4.7494655 -7.9266763
-3.846587 -0.78321826 1.4168234 -2.782254 -1.9856385 -2.0040796 6.023712 8.497917
2.3706234
00000000: 14c8 05c1 a8ac 543f 9eeb 9fc0 335c 3f40
00000010: ec5d dfc0 3550 2840 6896 1140 e877 86c0
00000020: dd49 ce40 4312 5840 8e8d 21c1 8842 2840
00000030: b691 cfc0 1fea 9840 fbd7 5bc0 a42b 0dc1
00000040: 28ee 67c0 0926 c3c0 eb69 6040 01dd d6c0
00000050: c41c 17c1 d76c ac40 1500 6cc0 22ec a740
00000060: dc56 0dc1 23fa 4cc0 bb22 9ec0 2cd4 c5c0
00000070: 3053 8e40 7f3f bac0 f36f fec0 f319 8040
00000080: 99ef 07c1 d144 8dc0 1c56 cdbf c6ed a240
00000090: c307 edbe 97cc c740 5965 3640 7054 c6c0
000000a0: de88 c83d 40a6 b13f 7e57 08c1 7493 8fc0
000000b0: 89ef c6c0 d8a9 813f 51f3 483f 3d28 5dc0
000000c0: 760f c740 5361 0e40 c888 ffc0 7145 25c0
000000d0: e955 66c0 d1ed 373f a129 b43d 85ab cfc0
000000e0: 8cb5 e240 0b6b 0940 18ee dcc0 53f2 aebe
000000f0: 9d73 c740 2590 03c1 b04f e5bf f8e6 ae3f
00000100: 7ecb df40 69fa 25c1 4d28 5bc0 706b fac0
00000110: 0170 0040 e270 9940 9ffb 97c0 55a7 fdc0
00000120: 7b2e 76c0 fe80 48bf 785a b53f 7310 32c0
00000130: 6729 febf d742 00c0 40c2 c040 78f7 0741
00000140: 4bb8 1740
