classifier_fold_2_shift_3.pt (torch, 2436 bytes, 2 tensors)

encoder.0.weight f4 [9, 8]
00000000: 6b20 dd40 1c4f b8c0 c7f7 04bf 551c 3ec0
00000010: 67fd 3c40 e349 0641 2840 fe40 a6e3 4cbf
00000020: 9248 54c1 48ba 063f 4735 d6bf 6a77 b23f
00000030: c992 58c0 1fa1 19c0 2671 ffc0 0b02 9fbf
00000040: 7539 e9bf 566f 8340 0285 663f 8a7f 3840
00000050: 2e10 e73f 2311 8ac0 071c 433e 0f1c ab3e
00000060: 6297 b8c0 d286 e5bf 25d2 913e 16d4 b9be
00000070: a09a 0cc0 9769 45bd d02c 0040 f989 c0bf
00000080: 17ae a2c0 de6e e8c0 19a0 9140 e498 29c0
00000090: 24fd 5340 c983 7d40 b44b 42c1 0ef8 53c1
000000a0: e06d 16c1 67c5 e23e 41c0 08be aa4c 883f
000000b0: d024 d8bf 1a8e 2fc0 c961 56be 0dfe 35c0
000000c0: 216d 7640 dcee 0941 e3f6 d33d 10fd 4d3f
000000d0: 48dc 8440 5669 cac0 a9a7 5641 219a 2641
000000e0: 2911 7640 859d 0440 03c3 e0bf 8b26 463f
000000f0: 9458 0cc1 e379 a640 55c4 c3c0 f6d3 b740
00000100: 0437 3541 dabb c0bf 228b 39c0 3514 f2c0
00000110: ba18 acc0 af4f 9540 7b45 4741 2833 89bf
6.9102073 -5.759657 -0.5194058 -2.9704792 2.9529665 8.393039 7.9453316 -0.80034864
-13.267717 0.5262799 -1.6735009 1.3942692 -3.383959 -2.400459 -7.982562 -1.2422498
-1.822066 4.107341 0.90046704 2.8827844 1.8051813 -4.314592 0.1905366 0.33419845
-5.7684793 -1.7931769 0.2848064 -0.3629462 -2.1969376 -0.0481964 2.0027351 -1.5042106
-5.083751 -7.2635336 4.550793 -2.6499567 3.3123255 3.9611685 -12.143482 -13.24806
-9.401825 0.4429123 -0.13354589 1.0648396 -1.6886234 -2.7430482 -0.2093574 -2.843631
3.8504107 8.620815 0.10349824 0.8046427 4.15189 -6.3253584 13.415933 10.412629
3.8447974 2.0721142 -1.7559513 0.7740256 -8.7716255 5.2023787 -6.1177163 5.744624
11.325932 -1.5057328 -2.899117 -7.5649667 -5.3780184 4.665977 12.454463 -1.0718737

classifer.0.weight f4 [9, 9]
00000000: eebf 36c1 a152 023e 27a3 3240 0e37 c5bf
00000010: dd03 57c1 c99a 15bf d43e 3d40 ae17 fa40
00000020: 8023 4f40 18d9 8140 58a5 5fc1 8ad7 9fbe
00000030: 60d6 efc0 9c58 dd40 b669 75c1 f98f 99c0
00000040: 1c42 0340 9ccb 6a40 7483 38c1 a574 8f40
00000050: 743f 7540 83f1 35c1 5118 7740 f9e9 3ac0
00000060: 31b9 eabe 6fea 3d40 b061 263f 0ee3 0c40
00000070: 670d 38c1 efe8 c33e 47e5 43c1 9453 6ec1
00000080: f7d0 63c1 a726 d6be 2929 fbc0 b828 4a41
00000090: 7664 c6bf 069e ee3f c4c4 d4bf cbd7 e940
000000a0: b302 c4be 1dde 0341 abe3 d23f 24ff 19c0
000000b0: c98e 81c1 159c a440 2415 34c1 a98d 67be
000000c0: 0a94 70c0 646b 09c1 0ddc 03c1 811e 9a40
000000d0: 715e 0240 5a98 06c1 3316 47bf 34ec ca40
000000e0: ba51 3dc0 c814 4240 7bbb 5e40 ded4 a340
000000f0: 2498 3bc1 a396 ba3f 8449 103f 2529 99bc
00000100: ca9e d7bf aadc e440 1242 48be 1759 cac0
00000110: 9ba9 673e ff3e e540 d685 77c1 59b7 c1c0
00000120: 4225 d33f fb4f 9340 4983 22c1 ca6a 0441
00000130: ed5a eac0 9c92 e940 bace 4bc0 71de 07c1
00000140: 64e4 5b41
-11.421858 0.12726833 2.791208 -1.5407426 -13.438443 -0.5843931 2.9569597 7.8153906
3.2365417 4.0577507 -13.977867 -0.3121913 -7.494919 6.9170666 -15.338308 -4.798825
2.05091 3.6686773 -11.532093 4.482989 3.8319979 -11.371463 3.8608592 -2.9205306
-0.45844415 2.9674337 0.6499281 2.2013583 -11.503272 0.38263652 -12.243476 -14.895405
-14.238517 -0.41826364 -7.8487744 12.634941 -1.5499408 1.8641975 -1.6622548 7.307592
-0.3828331 8.241727 1.6475729 -2.4061975 -16.19472 5.144053 -11.255161 -0.22612633
-3.7590356 -8.588718 -8.241223 4.8162236 2.0370142 -8.412195 -0.7776825 6.3413334
-2.9581132 3.0325184 3.480193 5.119735 -11.724644 1.4577221 0.56362176 -0.018696377
-1.6845334 7.1519365 -0.19556454 -6.323375 0.22623293 7.16394 -15.470175 -6.0536313
1.6495745 4.6035132 -10.157052 8.276072 -7.3235993 7.2991467 -3.1844926 -8.491807
13.743259
