classifier_fold_1_app3_5motions.pt (torch, 2472 bytes, 2 tensors)

encoder.0.weight f4 [9, 8]
00000000: 4d54 dfc0 44e5 e640 cc57 22c1 6afc 0041
00000010: ba52 13c1 af09 a5c0 cbd7 edbe 70fc a0c1
00000020: eac0 dc41 fe56 b03f 7834 12bf 79e5 c341
00000030: b1a5 3ac1 19f8 3c41 fd96 7d3f b5e3 5ac0
00000040: a961 2440 ef6c afc1 759a bc40 0fac dbc0
00000050: 4b4a 0941 e671 8b40 6456 8941 86ad e6c0
00000060: eabd f43e 8db5 3741 4176 1b41 968a 3ac1
00000070: 6b24 6341 2031 ac41 642c 8641 bca5 a0c1
00000080: 08ec ef3d 8bdd e541 809b e740 7afc 0cc0
00000090: 9199 5041 2fa3 51c1 f967 6541 a4ad c6c0
000000a0: 2873 8641 1ca1 16c0 b6d1 6841 9de3 5240
000000b0: 255f f0bf f860 f440 29ee ba40 0e98 1d41
000000c0: 01cf d640 64c7 9640 492a 7a41 7524 90c0
000000d0: 14ad 2641 5775 6641 93bc 2141 7cb8 a03e
000000e0: b463 013f ea03 e1c0 50dc 7e3f 2210 e73c
000000f0: 604e 9c3e f06d 853b bfda bb3f 62e4 0140
00000100: 8ec6 0ebe 0e83 53c0 8e2c 09c0 5411 4cc0
00000110: 77eb c2bf 0395 aabf 0af5 39bf b1c9 63c0
-6.9790406 7.2154865 -10.146435 8.061625 -9.207697 -5.157432 -0.464537 -20.12326
27.594196 1.3776548 -0.5711131 24.487047 -11.665452 11.810571 0.99058515 -3.4201481
2.5684607 -21.92819 5.8938546 -6.8647532 8.580638 4.3576536 17.167183 -7.208682
0.47801143 11.481824 9.716371 -11.658834 14.196391 21.523987 16.771675 -20.080925
0.11714941 28.733175 7.237732 -2.20291 13.037492 -13.10234 14.337884 -6.2086964
16.806229 -2.3535833 14.551199 3.2951424 -1.8779036 7.636837 5.8415723 9.849623
6.712769 4.7118397 15.635324 -4.5044503 10.417255 14.403647 10.108539 0.3139075
0.5054276 -7.031728 0.9955492 0.028205935 0.30528545 0.0040719435 1.4676131 2.0295644
-0.1394293 -3.304874 -2.1433444 -3.1885576 -1.5228108 -1.3326725 -0.72639525 -3.5591853

classifer.0.weight f4 [9, 9]
00000000: 094c 43c1 ef72 da40 ac08 e940 e70e f2c0
00000010: 7481 b240 e4d6 9a40 bcec 3a3f 3a54 b2c1
00000020: 150d 74c1 ea9f 1341 7075 41c1 6c64 8840
00000030: ea0c a240 6a77 49c1 685a db40 ff05 0641
00000040: 6648 c6bf e0ee ccc1 faf7 0bc0 351f 96c0
00000050: 9f1b 9ac0 d34f b0c0 0290 88c0 b2ae aac0
00000060: b661 b7c0 ef2b 21c0 e94e 0ac0 bead f1bf
00000070: 4f13 91c0 39a8 9dc0 1322 b1c0 1bcc 86c0
00000080: 9ad8 afc0 d724 b8c0 a6d8 20c0 fc12 f0bf
00000090: 4383 0ac0 99c8 8fc0 7346 8dc0 427b a7c0
000000a0: 469f 7bc0 d4bc adc0 16b8 c5c0 0e3e 0ec0
000000b0: bfc8 0fc0 d1e0 03c0 224e 98c0 8d50 9dc0
000000c0: 331b a6c0 b47b 8ac0 a8f7 a6c0 ae80 bbc0
000000d0: c64e 28c0 f72e d3bf 85a2 17c0 83ab e7c0
000000e0: 0750 a5c0 5bb2 b640 bc7b 98c0 3c8d 30c0
000000f0: 0003 6840 e212 863f dc16 a541 41ff 8fc1
00000100: 04cb c240 ac32 9fc0 586d 8e40 7eb0 cc40
00000110: 8188 d7c0 e84a 89c0 9b4b d33e 5b55 d1c0
00000120: bda2 8d41 d6fa e5c0 d31c a8bf 316b 4ac1
00000130: 4711 80c0 e1f2 42c1 7a13 89c1 a896 1842
00000140: 0235 3f42
-12.206063 6.82653 7.2823086 -7.564319 5.5783024 4.838732 0.7301748 -22.291126
-15.253194 9.2265415 -12.091171 4.2622585 5.0640764 -12.591654 6.854786 8.376464
-1.5490844 -25.616638 -2.1870103 -4.6913095 -4.8158717 -5.509744 -4.267579 -5.333825
-5.7306776 -2.5183065 -2.1610663 -1.8881147 -4.533607 -4.926785 -5.5354095 -4.212415
-5.4951906 -5.754497 -2.5132232 -1.8755794 -2.1642616 -4.493237 -4.4148498 -5.233796
-3.9315963 -5.4293003 -6.1787214 -2.2225375 -2.2466276 -2.0605967 -4.7595377 -4.916083
-5.19082 -4.3276005 -5.2177315 -5.859458 -2.629808 -1.6498708 -2.3692944 -7.2396865
-5.166019 5.709272 -4.7651043 -2.7586203 3.625183 1.0474513 20.636162 -17.999636
6.087282 -4.9749355 4.4508476 6.3965445 -6.735413 -4.290394 0.4126862 -6.5416694
17.704462 -7.1868696 -1.3133796 -12.65117 -4.002109 -12.184297 -17.13451 38.147125
47.801765
