encoder_fold_1_shift_4_app1_full_features.pt (torch, 2886 bytes, 1 tensors)

encoder.0.weight f4 [8, 40]
00000000: 6c08 80c0 0650 bcbf 0afa 1440 4ac9 5d3d
00000010: 9f08 973e 248f eebf 5ecc b33f 96ce c9bf
00000020: 3f08 63c0 440e 89bd 1e74 2940 5375 4d3f
00000030: 8ab4 32bd 7b6d 353e 13b9 0e3d cb8b ce3d
00000040: 76ad 36be 01b1 0abc bbfa 633e d1fd a2bd
00000050: d9b3 773e 8e98 ddbd e207 f9bb 17cc d4bc
00000060: ee5c aebe 6ad3 963d 1629 133f b5d3 a0be
00000070: aaff 0d3e 70f8 febd 03c2 2c3e ccd7 92bd
00000080: a25a 5fbf 9371 cf3e 988a 5d3f 3517 0dc0
00000090: 3ebc 5ebf 1b71 19c0 bce4 00c0 d4f2 27c0
000000a0: bef9 02c0 e53c 77c0 41e5 92bf 88c1 1440
000000b0: 49a2 0a3f 9ebd 483f 0772 8fbf fc47 043f
000000c0: ecff dcbf 3956 4ec0 54b7 2abe 53db 1340
000000d0: 4176 ea3d f60c 223d 2964 3d3e b809 863d
000000e0: 6fcb 0b3d 6715 63be 2ac5 7cbb 1fa6 a43e
000000f0: 99cf 82be c9a0 8a3e 83a1 11be d882 6fbc
00000100: 2d4d b0bc 0f0a c5be 73f3 b23d 71d9 003f
00000110: b3cd 48be dae3 143e 7b06 c3bd b4db 833e
00000120: 2de5 4ebe 3ca4 81bf 5fc8 fa3e 13df c53f
00000130: 97a6 d1bf 4554 a5bf e13e 4ec0 921d 61bf
00000140: 89b9 74be 9f1d fabf 68af 6bc0 6fd4 aabe
00000150: 062d 8140 05b4 ba3e 95ab e53f bb49 f5be
00000160: dab7 5bbe 5b96 b4bf e9da 60c0 5243 bb3e
00000170: 8c5d 413e 8e99 3c3d 2e04 f93d a43a f73d
00000180: 06db 393d 1a36 52bd 9817 47be b3b0 2abc
00000190: 66cf fe3e 26fb 9fbe 5b6f 843e c2c0 44be
000001a0: 641f 863c 74ab ee3c 52c1 c9be 7388 483e
000001b0: 44de c73e 4cfd 81be b02d 02bd 28df 59be
000001c0: be91 873e 4d3c 97be 6535 7fbf 7022 acbf
000001d0: fef7 c43f 91eb d5bf 3071 c0bf cafb 58c0
000001e0: dc8c 2bc0 95cc 47be 282f 09c0 2234 1dc0
000001f0: 671e 863f ee4c 9340 c7d2 5c3f bee6 c53e
00000200: 1208 91bf 724b 683e 8a92 9fbf 3083 b4bf
00000210: 2e9b 10be 3328 073e e6be e63b 3438 073e
00000220: 5419 ba3d f0d3 5f3c 9f27 ebbc c8f3 41be
00000230: 33ea 073d 3c53 003f e17f aebe bb25 743e
00000240: dc84 38be dea6 d3bb 620b c0bd ab91 04bf
00000250: 8208 073e 8353 cd3e c030 b2be 904f 7d3d
00000260: e099 7bbe 71ad 763e b317 233d 2236 94c0
00000270: b7a9 07c0 843f de3f da74 e1bf 99bb d6be
00000280: b54a 77be e28f 2ac0 bebe 3dbe da94 bcbf
00000290: 1142 40c0 3300 783f a100 8b40 a12c 1ebc
000002a0: b844 ec3d 0d0b 99bf 90a5 c03e 2e1c 8dbe
000002b0: d790 1cbe 0cb6 a4bd eadc 053e deb7 973c
000002c0: 8bd4 db3d a152 ae3d 34ea 503c a824 8fbc
000002d0: 780d 70be 9588 7e3d 423e 033f 9095 aebe
000002e0: 68dd 703e fda7 52be fed1 73bc 3559 59bd
000002f0: 6d04 02bf 75ae 0b3e 7ac5 ed3e b366 aabe
00000300: aba6 1b3e d5b1 4ebe 8538 343d de41 1cc0
00000310: 128a 8ac0 c791 00c0 da7a dd3f ea4e 70bf
00000320: 51e3 aabf 1bbe 97be 11db 30c0 af30 263e
00000330: 5558 e1bf 5981 39c0 86f1 a33f ab03 7140
00000340: 4015 0b3f bf58 dc3e f34a 7fbf 5089 823f
00000350: c595 9c3e 0fd9 1abe 1a1e b1bd 994f fc3d
00000360: ad10 3b3d b06b e93d c148 c13d 2325 0c3d
00000370: 6e12 18bd a9a3 70be b605 7b3d 5732 023f
00000380: 9669 c0be 1529 693e 4111 75be 0c97 cd3b
00000390: 62e9 d2bd 7a2d 0abf 2593 4a3e 56ec 013f
000003a0: 2d86 b9be 814f 713e 29ab b7bd ee59 bbbf
000003b0: d2a4 21c0 1aed 96c0 3e70 1ac0 e1f4 0640
000003c0: 0c05 2040 517a 8bbf 2aaa 42be bfd1 bcbf
000003d0: aceb 9e3f 591b cabf bde4 dabf 472b a93d
000003e0: 876a 4640 9736 4d3f 46e7 0b3f 3014 65bd
000003f0: 01ca a8bd b941 223e 618e 20be 6cc9 69bd
-4.001028 -1.4711921 2.3277612 0.054147042 0.29498765 -1.8637433 1.4046743 -1.576617
-3.5473783 -0.06692174 2.6477122 0.8025715 -0.043629207 0.17717545 0.03484447 0.10085257
-0.17839608 -0.008465053 0.22263615 -0.07958568 0.241897 -0.10820113 -0.0075998167 -0.025976224
-0.34055275 0.07364543 0.5748457 -0.3141152 0.1386706 -0.124497294 0.16870885 -0.07170066
-0.8724767 0.40516338 0.865396 -2.2045414 -0.87005985 -2.3975284 -2.0139608 -2.624196
-2.046493 -3.8630917 -1.1476213 2.3243122 0.5415388 0.7841433 -1.1206673 0.5167234
-1.7265601 -3.2240126 -0.16671497 2.3102615 0.114483364 0.03956314 0.1849524 0.065448225
0.034129556 -0.22176133 -0.0038569667 0.3215799 -0.2554901 0.27075794 -0.14221768 -0.014618598
-0.021521175 -0.38484237 0.087378405 0.5033179 -0.19609718 0.14540043 -0.095227204 0.25753558
-0.20204611 -1.0128245 0.48980996 1.5458702 -1.6378964 -1.2916342 -3.2225878 -0.87935746
-0.23898901 -1.954029 -3.682581 -0.333652 4.036746 0.3646547 1.7942988 -0.47907814
-0.21456853 -1.4108385 -3.5133612 0.365748 0.18883342 0.04604488 0.12159 0.12071732
0.045374893 -0.051321127 -0.19442594 -0.010418105 0.49767607 -0.312463 0.25866207 -0.19214156
0.01637239 0.02913449 -0.39405304 0.19583301 0.39036763 -0.25388563 -0.031781852 -0.21276534
0.2647838 -0.29538193 -0.9969085 -1.344801 1.5388181 -1.6712514 -1.5034542 -3.390368
-2.6804724 -0.19511636 -2.1435032 -2.456307 1.0478028 4.603141 0.8625912 0.38652605
-1.1330588 0.2268503 -1.2466595 -1.4102535 -0.14121696 0.13198929 0.0070418 0.13205034
0.09086862 0.01366137 -0.028705416 -0.18940651 0.033182334 0.50127006 -0.3408194 0.23842518
-0.18019432 -0.006459101 -0.09377171 -0.5178477 0.13186839 0.40102777 -0.34802818 0.061843455
-0.24570417 0.240896 0.039817523 -4.631608 -2.1197336 1.7363133 -1.7613785 -0.4194
-0.24149592 -2.665032 -0.18529794 -1.4732926 -3.0040324 0.96875304 4.343827 -0.009654195
0.115365446 -1.1956497 0.37626314 -0.27560562 -0.15289627 -0.08042535 0.13072553 0.018520292
0.10733899 0.08511854 0.012751151 -0.017473534 -0.23442638 0.062141974 0.5126687 -0.34098482
0.2352196 -0.20571895 -0.014881609 -0.05306359 -0.50788003 0.13640769 0.46439725 -0.33281478
0.15200298 -0.20185025 0.043999214 -2.4415202 -4.3293543 -2.0088975 1.7303116 -0.93870413
-1.3350621 -0.29637226 -2.7633708 0.16229509 -1.7605082 -2.8985198 1.2808082 3.7658489
0.543293 0.43036458 -0.9972374 1.0198154 0.30583015 -0.15121864 -0.086483195 0.123198695
0.0456702 0.11397493 0.09437705 0.034215104 -0.03712695 -0.23499931 0.061284743 0.5085806
-0.37580556 0.22769578 -0.23932363 0.0062741097 -0.102984205 -0.5397564 0.19782694 0.50751245
-0.3623518 0.23565485 -0.08968193 -1.4636819 -2.5256848 -4.716443 -2.4131007 2.1086962
2.500308 -1.0896703 -0.19010225 -1.475151 1.2415671 -1.5789596 -1.7101055 0.082602076
3.100252 0.8016142 0.5464977 -0.055927455 -0.08241654 0.15845384 -0.15679313 -0.057076856
