encoder_fold_2_shift_4_app1_5motions.pt (torch, 1773 bytes, 1 tensors)

encoder.0.weight f4 [8, 8]
-2.105779 -4.272504 -1.4255393 -3.8307748 0.9252501 4.6271615 -1.996675 2.9424596
2.965059 -2.1365507 -4.2879243 -1.438903 -3.8411636 0.9324491 4.609174 -2.0221598
-2.0485604 2.9682808 -2.1202235 -4.2768297 -1.4633839 -3.8147588 0.90769064 4.6549935
4.579422 -2.0183733 2.9484668 -2.0813508 -4.313474 -1.4283692 -3.8318682 0.9419148
0.9409816 4.620158 -2.0048761 2.9415143 -2.0936856 -4.304719 -1.410512 -3.8471818
-3.805919 0.939234 4.627298 -2.000857 2.9637332 -2.0966165 -4.2484136 -1.4672594
-1.4486583 -3.801429 0.9148655 4.642991 -2.0545776 2.9911258 -2.1339765 -4.274295
-4.297224 -1.4009254 -3.8279724 0.94442344 4.607583 -2.002634 2.95336 -2.080132
00000000: 15c5 06c0 5ab8 88c0 1278 b6bf 6a2b 75c0
00000010: 31dd 6c3f b511 9440 0c93 ffbf 4251 3c40
00000020: 87c3 3d40 3fbd 08c0 ad36 89c0 f92d b8bf
00000030: a0d5 75c0 fcb4 6e3f 5a7e 9340 116b 01c0
00000040: 9d1b 03c0 50f8 3d40 beb1 07c0 cadb 88c0
00000050: 2a50 bbbf 0225 74c0 6a5e 683f b5f5 9440
00000060: a08a 9240 072d 01c0 aeb3 3c40 da34 05c0
00000070: fb07 8ac0 cdd4 b6bf 543d 75c0 5421 713f
00000080: 2ce4 703f 56d8 9340 e44f 00c0 c541 3c40
00000090: f2fe 05c0 42c0 89c0 a88b b4bf 3a38 76c0
000000a0: 2d94 73c0 a471 703f d312 9440 0b0e 00c0
000000b0: cead 3d40 f72e 06c0 01f3 87c0 28cf bbbf
000000c0: a36d b9bf 9d4a 73c0 a034 6a3f 6293 9440
000000d0: 337e 03c0 9b6e 3f40 1293 08c0 06c7 88c0
000000e0: dc82 89c0 8651 b3bf 80fd 74c0 bcc5 713f
000000f0: 5271 9340 282b 00c0 da03 3d40 e220 05c0
