encoder_fold_2_app3_5motions.pt (torch, 1733 bytes, 1 tensors)

encoder.0.weight f4 [8, 8]
4.5686016 -1.3384078 -0.4192214 0.06499317 0.19763288 1.175173 0.79480267 -1.2029546
-1.1823903 4.564021 -1.332022 -0.42310208 0.062884405 0.17364001 1.1742555 0.81542873
0.8324934 -1.1746602 4.5729423 -1.3034061 -0.4392301 0.05203926 0.1563701 1.194964
1.178851 0.83889693 -1.1894131 4.5788803 -1.3045431 -0.41649 0.054236576 0.19155413
0.16589092 1.1789298 0.807117 -1.1993942 4.574376 -1.308071 -0.41206598 0.06180977
0.07609905 0.18818739 1.1784117 0.8283002 -1.2094252 4.54631 -1.3242102 -0.4231635
-0.40515116 0.076804094 0.1942734 1.1633381 0.82514626 -1.1943864 4.575556 -1.3171085
-1.3307581 -0.4227421 0.04661523 0.17063332 1.1692723 0.83693147 -1.1898376 4.5527034
00000000: fc31 9240 f250 abbf 30a4 d6be 241b 853d
00000010: 4660 4a3e 126c 963f 3078 4b3f 6bfa 99bf
00000020: 9158 97bf 760c 9240 b27f aabf d6a0 d8be
00000030: 8ac9 803d b0ce 313e 014e 963f f0bf 503f
00000040: 4a1e 553f 445b 96bf 8b55 9240 03d6 a6bf
00000050: c5e2 e0be 1e27 553d 7c1f 203e 95f4 983f
00000060: 97e4 963f f3c1 563f b03e 98bf 3086 9240
00000070: 45fb a6bf 2d3e d5be 2c27 5e3d c426 443e
00000080: 4fdf 293e 2ce7 963f 389f 4e3f c085 99bf
00000090: 4a61 9240 df6e a7bf 50fa d2be 3e2c 7d3d
000000a0: d2d9 9b3d 32b4 403e 32d6 963f 7b0b 543f
000000b0: 72ce 9abf 5f7b 9140 b87f a9bf e3a8 d8be
000000c0: f96f cfbe 774b 9d3d 9bef 463e 43e8 943f
000000d0: c93c 533f a7e1 98bf f46a 9240 0397 a8bf
000000e0: 4856 aabf a771 d8be 9def 3e3d 80ba 2e3e
000000f0: b7aa 953f 2441 563f 994c 98bf bfaf 9140
