encoder_fold_2_shift_8_app1_5motions_full_features.pt (torch, 2931 bytes, 1 tensors)

encoder.0.weight f4 [8, 40]
0	0x3ed90f94	0.42394698
1	0xbec1dfc0	-0.3786602
2	0xc0139887	-2.3061845
3	0xbebf92fb	-0.37416825
4	0xbc9abf1b	-0.018889954
5	0xbebee144	-0.3728124
6	0x3f588700	0.84580994
7	0x3e6be15a	0.23035184
8	0xbf6aa6cf	-0.9166078
9	0xbfa93363	-1.3218807
10	0xbffe5f31	-1.98728
11	0x3e84f6aa	0.2596944
12	0xbe19dc9b	-0.1502556
13	0x3e143e88	0.14476979
14	0x3e0fbf53	0.14037828
15	0xbc84f7fc	-0.01623153
16	0x3e0fd595	0.14046319
17	0xbdac654f	-0.084177606
18	0xbd7b7809	-0.06139377
19	0x3d03de8a	0.03219465
20	0xbded914c	-0.11599979
21	0x3e87abc8	0.26498246
22	0x3d48a349	0.048983846
23	0x3e5bc7b5	0.21462901
24	0x3ed25e41	0.41087535
25	0xbedf4799	-0.43609312
26	0xbdb5c7ad	-0.08875976
27	0xbe022338	-0.12708747
28	0xbe9d8924	-0.30768692
29	0x3ea393f1	0.31948808
30	0x3d99783d	0.07493637
31	0x3cf3f010	0.029777557
32	0x3e9cec6d	0.3064913
33	0xbe867a97	-0.26265404
34	0x3dc8da8c	0.098073095
35	0xbfe6627c	-1.7998805
36	0xc00de1df	-2.216911
37	0xbea818b7	-0.32831356
38	0xbf0e3d0c	-0.555619
39	0xbd83cf0a	-0.06435974
40	0xbe0bde2d	-0.13658972
41	0xbf8ce46b	-1.1007208
42	0xbf305995	-0.6888669
43	0xbfc5f0b0	-1.5464077
44	0xbed30558	-0.41215014
45	0xbe2aaa68	-0.16666567
46	0xbebb27fd	-0.36553946
47	0x3f2882b7	0.65824455
48	0x3e70eae8	0.2352711
49	0x3e39807e	0.18115422
50	0xbf407073	-0.75171584
51	0xbfac963a	-1.3483346
52	0x3e54cb5f	0.20780705
53	0xbe6a6092	-0.22888401
54	0x3e46810c	0.19385165
55	0x3daea235	0.08527032
56	0x3ce16de9	0.02751823
57	0x3e6f3df6	0.2336348
58	0xbd61fa4c	-0.055170342
59	0xbd68ea52	-0.05686409
60	0x3aa2364c	0.0012375801
61	0xbea0769a	-0.31340486
62	0x3e967836	0.2938859
63	0x3da68f71	0.08132828
64	0x3e0b3d72	0.13597658
65	0x3f02c702	0.5108491
66	0xbf02a1c3	-0.5102808
67	0xbd0b2448	-0.033970147
68	0xbe0162ee	-0.12635395
69	0xbdf109ab	-0.11769422
70	0x3e97a104	0.29615033
71	0x3d37009e	0.044678323
72	0x3e2cbf4e	0.16869852
73	0x3e2035b9	0.15645494
74	0xbe2d2fca	-0.16912761
75	0xbfd670c2	-1.6753161
76	0xbfe19534	-1.7623658
77	0xbffa6e89	-1.9564983
78	0xbf1d2deb	-0.6139819
79	0xbe9e2d25	-0.30893818
80	0xbd153f62	-0.0364374
81	0xbbe9b8f3	-0.0071326434
82	0xbf7fcfa9	-0.9992624
83	0xbf0dea4e	-0.55435646
84	0xc00cce21	-2.200081
85	0xbf09105d	-0.53540593
86	0xbde8204e	-0.11334287
87	0xbeeeeffc	-0.4666747
88	0x3edead88	0.4349177
89	0xbdfb70e5	-0.12277392
90	0x3e1e03b5	0.15431102
91	0xbe88449d	-0.26614848
92	0xbdf0c8a3	-0.117570184
93	0x3e20ec34	0.15715104
94	0xbe4b176f	-0.19833158
95	0x3e37c34e	0.17945597
96	0x3d6b99b6	0.057519637
97	0x3d14c70a	0.03632263
98	0x3e47a077	0.19494806
99	0xbdb0f3a9	-0.086402245
100	0xbc6b97fa	-0.014379496
101	0xbd2383c3	-0.03992058
102	0xbe97909e	-0.29602522
103	0x3eb6474b	0.35601267
104	0x3dd05721	0.101728685
105	0x3e23d517	0.15999256
106	0x3f0a2bbc	0.53972983
107	0xbee2c9d3	-0.44294605
108	0xbcc99e11	-0.024611505
109	0xbd9aa01a	-0.07550068
110	0xbdf2ed92	-0.11861719
111	0x3e5c2426	0.21498165
112	0x3c55d513	0.013051289
113	0x3e4489fd	0.19193263
114	0x3d94e82f	0.07270848
115	0xbf8ea68f	-1.114458
116	0xc019f7ca	-2.4057488
117	0xbfc7eabd	-1.5618511
118	0xc00b3648	-2.175188
119	0xbef7755e	-0.48331732
120	0xbf2eb0d7	-0.68238586
121	0x3e960d42	0.2930699
122	0xbdf86778	-0.1212911
123	0xbe6cbbb6	-0.23118481
124	0xbf2a863b	-0.6661107
125	0xc005ae08	-2.088747
126	0xbf1e3109	-0.6179357
127	0xbd7ba0bb	-0.06143258
128	0xbeeda898	-0.4641769
129	0x3ef07c45	0.4696981
130	0x3dc0e46c	0.09418568
131	0xbed5aae9	-0.41731957
132	0x3db9c8c4	0.09071496
133	0xbde10c4a	-0.10988672
134	0x3dbe5423	0.092933916
135	0xbe1a9c75	-0.15098746
136	0x3e5cbd0c	0.2155649
137	0x3db95f21	0.090513475
138	0x3dad6653	0.084667824
139	0x3e615086	0.22003374
140	0xbdedd369	-0.11612589
141	0xbd82082e	-0.063492164
142	0xbd23aa4d	-0.039957333
143	0xbeabfc8a	-0.3359111
144	0x3ea540be	0.32275957
145	0x3cff9750	0.031200081
146	0x3dabda46	0.08391242
147	0x3ef9783b	0.4872454
148	0xbed93f91	-0.4243131
149	0x3d8d3dad	0.06896529
150	0xbe1b0f8d	-0.15142651
151	0xbdb6cb8f	-0.089255445
152	0x3e9edfc7	0.31030104
153	0x3dc617ba	0.09672494
154	0x3eb3e186	0.35132998
155	0x3ad249bd	0.0016043704
156	0xbfcf99eb	-1.6218847
157	0xc0091142	-2.1416783
158	0xbfb9b017	-1.4506863
159	0xc008d14f	-2.1377752
160	0xc015437c	-2.332244
161	0xbf7be66e	-0.9839848
162	0x3da4c9a5	0.08046273
163	0x3e5df775	0.21676429
164	0xbf5f4012	-0.8720714
165	0xbf1fe86e	-0.62464035
166	0xc00c2777	-2.1899087
167	0xbf4bea40	-0.7965431
168	0x3d8dab57	0.06917446
169	0x3e1e0ee4	0.15435368
170	0x3f455bf3	0.7709343
171	0xbeb37514	-0.3505026
172	0x3e5b7e37	0.21434866
173	0x3d86949e	0.06571315
174	0xbdce5cb1	-0.10076273
175	0x3db2bb1e	0.08727096
176	0xbe03a1b6	-0.12854657
177	0x3e66e6cb	0.22548978
178	0x3def9149	0.11697633
179	0x3d705a5f	0.058679935
180	0x3ea6df4e	0.32592243
181	0xbe6cb068	-0.23114169
182	0xbccd6303	-0.025071627
183	0xbd336e9f	-0.04380667
184	0xbec0e860	-0.37677288
185	0x3ea5701f	0.32312104
186	0xbc49e8ad	-0.012323541
187	0x3e08ac23	0.13346915
188	0x3ea617a4	0.3243991
189	0xbea0803e	-0.3134784
190	0x3d1ce042	0.038299806
191	0xbe171ea2	-0.14757779
192	0xbb93a5d3	-0.004505852
193	0x3e8a1256	0.26967114
194	0x3e1e46e3	0.15456729
195	0x3ec16410	0.37771654
196	0x3e945281	0.28969195
197	0xbfb8f46b	-1.444959
198	0xc00d355f	-2.2063825
199	0xbfa0296b	-1.251264
200	0xbfb5515b	-1.4165453
201	0xbf6883fb	-0.90826386
202	0xbf511a83	-0.8168108
203	0x3f1ad273	0.6047737
204	0x3e13845c	0.1440596
205	0xbf49c180	-0.7881088
206	0xbf66dd01	-0.90180975
207	0xbffd514b	-1.9790434
208	0xbf377e1b	-0.71676797
209	0xbf5c3d1b	-0.8603074
210	0xbd0f9607	-0.035055187
211	0x3f0e9995	0.557031
212	0xbd9e8818	-0.077408016
213	0x3e826578	0.2546804
214	0xbc69054e	-0.014222456
215	0xbda1a74c	-0.078932375
216	0x3d5c1c5d	0.053737987
217	0xbe2adf0e	-0.16686651
218	0x3e54aeb6	0.20769772
219	0x3e1e6e4a	0.1547176
220	0x3e089403	0.13337712
221	0x3ed2c26c	0.41163957
222	0xbe829815	-0.25506654
223	0xbda3c2a6	-0.079961106
224	0xbd6dbf6a	-0.058043875
225	0xbeec0ee4	-0.4610511
226	0x3eb429e6	0.35188216
227	0xbcfb802b	-0.030700764
228	0x3d88185f	0.066452734
229	0x3e8b9a94	0.2726637
230	0xbeb6a50c	-0.35672796
231	0x3e01cf89	0.12676825
232	0xbe38e8c7	-0.18057548
233	0x3de663dd	0.11249516
234	0x3e3dd87f	0.18539618
235	0xbe3e4da8	-0.18584311
236	0x3e8b842f	0.27249286
237	0x3e3244e0	0.17409086
238	0xbf814e6d	-1.0102059
239	0xc0111d31	-2.2674067
240	0xc01fef1c	-2.498969
241	0xbf4c553b	-0.7981755
242	0xbf8564f9	-1.042144
243	0xbbdbabff	-0.006703853
244	0x3f53b42d	0.826968
245	0x3dfd9a18	0.12382907
246	0xbf5884df	-0.84577745
247	0xbf4a924f	-0.791295
248	0xbff69dfc	-1.9266963
249	0xbf3f7301	-0.7478486
250	0xbf14962b	-0.5804164
251	0x3d07bedb	0.033141
252	0x3e222dc2	0.15837768
253	0xbd351e56	-0.044218384
254	0x3e539fb2	0.20666388
255	0xbc7138ef	-0.014723047
