encoder_fold_3_shift_1_app1_5motions_full_features.pt (torch, 2931 bytes, 1 tensors)

encoder.0.weight f4 [8, 40]
0	0xbfa98e12	-1.3246481
1	0xc03e368d	-2.9720795
2	0xbf4eea47	-0.8082623
3	0x3ee78c2c	0.4522413
4	0xbdb68d4e	-0.089136705
5	0xbe8d3e62	-0.27586657
6	0x3ec437b3	0.38323745
7	0xbed15f2d	-0.40892926
8	0xbf004f47	-0.5012097
9	0xc020e972	-2.5142484
10	0xbfd9e857	-1.702403
11	0x3f38c22d	0.7217129
12	0x3ea7153f	0.32633397
13	0xbe4d29f1	-0.2003553
14	0x3f125bd9	0.571714
15	0xbe0c5b35	-0.13706668
16	0x3e102b83	0.14079098
17	0xbcc29946	-0.023754727
18	0xbefc92b6	-0.49330682
19	0x3e9c2e6e	0.30504173
20	0x3ce1436e	0.027497973
21	0xbe14e81c	-0.14541668
22	0x3f26303d	0.64917356
23	0xbe951663	-0.29118642
24	0x3ee9753e	0.4559726
25	0xbdb99e52	-0.090634
26	0xbebab058	-0.36462665
27	0x3e13e3d3	0.14442377
28	0x3d40614c	0.04696779
29	0xbdf90109	-0.121584006
30	0x3f1dace5	0.6159194
31	0xbea501a8	-0.32227826
32	0x3e52ec7c	0.20598024
33	0xbe317231	-0.17328717
34	0xbe638a19	-0.22220649
35	0xbe893a15	-0.26802126
36	0xbf4b67df	-0.7945537
37	0xbf3272a0	-0.69706154
38	0xbeb771c4	-0.35828984
39	0xbfe8093e	-1.812782
40	0xbff43349	-1.9078151
41	0xbf894bbf	-1.0726241
42	0xc01a66a5	-2.412515
43	0xbf77fbaf	-0.96868414
44	0x3e2c79ab	0.16843288
45	0xbdf99d65	-0.12188224
46	0xbf01bff5	-0.5068353
47	0x3e57321e	0.21015212
48	0xbf3ee3d0	-0.74566364
49	0xbf0dc00a	-0.55371153
50	0xc037e859	-2.8735564
51	0xbf25f832	-0.6483184
52	0x3eeb4022	0.45947367
53	0x3e90222c	0.2815107
54	0xbe0f4d18	-0.13994253
55	0x3efda0ed	0.4953684
56	0xbe0e7d6c	-0.13915032
57	0x3df40cdf	0.119165175
58	0xbd2c9399	-0.042132948
59	0xbedad26e	-0.4273867
60	0x3eb606e3	0.3555213
61	0x3d033c0b	0.032039683
62	0xbdc6e54e	-0.09711705
63	0x3f27f2e0	0.6560497
64	0xbea6f7b2	-0.32610852
65	0x3f00f321	0.50370985
66	0xbde7677f	-0.11299037
67	0xbecd365f	-0.40080544
68	0x3dd20abf	0.10255956
69	0xba6575b6	-0.0008753197
70	0xbe327009	-0.1742555
71	0x3f15a004	0.5844729
72	0xbe5fa1fe	-0.21839139
73	0x3e1b3522	0.15156987
74	0xbe923ca0	-0.28561878
75	0xbf8c3930	-1.0954952
76	0x3dd74d6e	0.105128154
77	0xbedfe002	-0.43725592
78	0xbf1df4f4	-0.61701894
79	0x3e06fe4b	0.13182943
80	0xbe5db190	-0.21649766
81	0xc014540a	-2.3176293
82	0xbe31e134	-0.17371064
83	0xbfef48fa	-1.8694146
84	0xbfa8bc0e	-1.318239
85	0x3e629d8c	0.22130412
86	0xbe7ca2d1	-0.24671485
87	0xbeb50b45	-0.3536016
88	0x3f2c73e0	0.6736431
89	0xbcde7329	-0.027154522
90	0xbfd115ce	-1.6334779
91	0xbfbffb47	-1.4998559
92	0xbf46dc6d	-0.77680093
93	0x3ec52471	0.38504365
94	0x3e82d9ac	0.25556695
95	0xbe6f5b6b	-0.23374717
96	0x3f1ad882	0.60486615
97	0xbdc112d7	-0.094274215
98	0x3e2dfd3b	0.16991131
99	0x3ca35d3a	0.019941915
100	0xbed4c753	-0.41558322
101	0x3e0839be	0.13303277
102	0xbda4fd04	-0.080560714
103	0xbd5974bc	-0.053089842
104	0x3f3321d6	0.69973505
105	0xbed2303b	-0.41052422
106	0x3ed6f1d6	0.4198138
107	0xbe34c759	-0.1765417
108	0xbeacf50f	-0.33780715
109	0x3eabb970	0.33539915
110	0x3d6fba0b	0.058527034
111	0xbe1df9f2	-0.15427378
112	0x3ed62b08	0.41829705
113	0xb9052808	-0.00012698781
114	0x3ebc11fd	0.36732474
115	0xc02b0f25	-2.6727993
116	0xbf58a653	-0.8462879
117	0x3e712234	0.23548204
118	0xbe8b2407	-0.27175924
119	0xbf4a32c3	-0.78983706
120	0xbf800e07	-1.0004281
121	0xbe8c6264	-0.27418816
122	0xbf99aab9	-1.2005225
123	0x3d713954	0.058892563
124	0xc024bd88	-2.574068
125	0xbfbb69f8	-1.4641714
126	0x3dd154fb	0.10221287
127	0xbc6d6e16	-0.014491579
128	0xbeeacda0	-0.45860004
129	0x3f309c4b	0.68988484
130	0xbf4bfaca	-0.7967955
131	0xbf01b39d	-0.50664693
132	0x3e24e5e5	0.16103323
133	0xbf35dc83	-0.710396
134	0x3ebcf844	0.36908162
135	0x3e62cf98	0.22149503
136	0xbe7853d7	-0.24250732
137	0x3f1aebec	0.6051624
138	0xbd9ed3d5	-0.077552475
139	0x3e8b6348	0.27224183
140	0xbd6fe8f9	-0.05857179
141	0xbee81861	-0.453311
142	0x3de989a9	0.1140321
143	0xbd545953	-0.051843
144	0xbd9aa976	-0.07551853
145	0x3f207e86	0.6269306
146	0xbede89e8	-0.4346459
147	0x3e9cf2bf	0.3065395
148	0xbddf0e5c	-0.10891411
149	0xbe7bbf1d	-0.24584623
150	0x3e946d0d	0.2898945
151	0x3a3107ca	0.0006753175
152	0xbd5012dd	-0.05079924
153	0x3f0d1cf9	0.55122334
154	0xbd8c73b6	-0.068580076
155	0xbf706347	-0.93901485
156	0xc046ec32	-3.1081662
157	0xbf6168eb	-0.8805072
158	0x3e93809e	0.28809065
159	0xbe0d83d4	-0.1381982
160	0xbe52f7ed	-0.20602389
161	0xbf2b98c2	-0.67029965
162	0x3e672b97	0.22575222
163	0xbebebff1	-0.37255815
164	0xbeac3dd3	-0.33640918
165	0xc02e3ead	-2.7225754
166	0xbfa6f0e0	-1.3042259
167	0x3d93a236	0.07208674
168	0x3b64bad6	0.0034901402
169	0xbeca4af6	-0.39510316
170	0x3e34d207	0.17658244
171	0xbf1c9b75	-0.6117471
172	0x3e284a70	0.16434646
173	0x3e18e9a9	0.14932884
174	0xbf27f2cc	-0.65604854
175	0x3ebdeda9	0.37095383
176	0x3e2a44bb	0.16627781
177	0xbe7bb76d	-0.2458169
178	0x3f04bfcf	0.51855177
179	0xbe1b25aa	-0.15151086
180	0x3ed06c77	0.40707752
181	0xbcf6777a	-0.030086268
182	0xbf02a5f0	-0.5103445
183	0x3e0cd3b1	0.13752629
184	0xbd908ee3	-0.070585035
185	0xbd816b49	-0.06319291
186	0x3f29b07f	0.66284937
187	0xbe9e3fb2	-0.3090797
188	0x3e28d8fc	0.16489023
189	0xbe03971f	-0.12850617
190	0xbe1bd332	-0.15217283
191	0x3ea15d58	0.31516528
192	0xbcf62cc0	-0.030050635
193	0xbdcb1637	-0.099163465
194	0x3eea83bf	0.4580364
195	0xbfde8915	-1.7385584
196	0xbf728db3	-0.94747466
197	0xc03eae05	-2.9793713
198	0xbf9d993f	-1.2312392
199	0x3e95c316	0.292504
200	0x3e9e9379	0.30971888
201	0xbe88bd3f	-0.26706883
202	0xbf0c7ef4	-0.54881215
203	0x3f26bfc8	0.65136385
204	0xbf1402c6	-0.5781673
205	0xbecb964e	-0.3976311
206	0xc01c3469	-2.4406989
207	0xbfb2b66d	-1.3961922
208	0x3e381613	0.1797717
209	0x3e908771	0.28228334
210	0xbf512755	-0.8170064
211	0x3e977331	0.29580072
212	0xbdd4eda0	-0.10396886
213	0x3e1a29ad	0.1505496
214	0x3dddfc0f	0.10839092
215	0xbf0d0ebf	-0.55100626
216	0x3eaa8bf3	0.33309898
217	0x3df0c7a7	0.11756831
218	0xbe72f012	-0.23724392
219	0x3ee8bb2b	0.45455298
220	0xbe4c70ba	-0.19964877
221	0x3ef0bc28	0.47018552
222	0xbd319318	-0.04335317
223	0xbf0c03d3	-0.54693335
224	0x3e2e054f	0.16994213
225	0xbcec87ca	-0.028873343
226	0xbcd33d00	-0.025785923
227	0x3f3eb47e	0.7449416
228	0xbe98871c	-0.2979058
229	0x3dd9ab12	0.10628332
230	0xbde3e993	-0.11128535
231	0xbc008091	-0.007843153
232	0x3e5183b3	0.20460396
233	0xbe352a37	-0.17691885
234	0xbcc16c6e	-0.023611274
235	0xbe804c76	-0.25058335
236	0xbfefdf19	-1.8739959
237	0xbf88379b	-1.064197
238	0xc04eeaec	-3.2330885
239	0xbfab3223	-1.3374676
240	0xbfbb354a	-1.4625638
241	0x3ea9ca92	0.3316236
242	0xbe134915	-0.14383347
243	0xbe3e0614	-0.18557006
244	0x3e5c2e94	0.21502143
245	0xbf135f0b	-0.575669
246	0xbe856f34	-0.26061404
247	0xc02b5bc0	-2.677475
248	0xbfaedb6b	-1.3660711
249	0x3e295e6a	0.16539922
250	0x3e5f8aee	0.21830341
251	0xbee4629f	-0.44606492
252	0x3f1e4e73	0.61838454
253	0xbe0ff981	-0.14060022
254	0x3e33dbe5	0.17564352
255	0x3b3ff369	0.002928937
