encoder_shift_7_app2_5motions.pt (torch, 1738 bytes, 1 tensors)

encoder.0.weight f4 [8, 8]
000000 31 cd 15 c0 dd 07 d5 bf b9 87 77 bf 3c a2 38 c0
       -2.340649 -1.6643025 -0.9669147 -2.884902
000010 7f be ab 3f e2 0e 18 40 86 4d a0 40 49 a2 89 c0
       1.341751 2.3759084 5.0094633 -4.30106
000020 d9 cf 8a c0 ba 83 14 c0 1b 8c d7 bf eb 81 75 bf
       -4.337872 -2.32054 -1.6839632 -0.95901364
000030 d0 51 3a c0 86 10 b0 3f a5 65 17 40 fa 97 a1 40
       -2.9112434 1.3755043 2.365579 5.049802
000040 fe 79 a0 40 4a c9 8a c0 13 69 15 c0 14 77 d7 bf
       5.0148916 -4.3370714 -2.3345382 -1.6833215
000050 40 f1 71 bf 26 17 3a c0 1b 62 aa 3f ec 9d 15 40
       -0.94508743 -2.9076629 1.331119 2.3377638
000060 ba 58 18 40 fe fc a0 40 ec e8 8a c0 c8 ae 15 c0
       2.3804154 5.030883 -4.340933 -2.3387928
000070 b5 03 d6 bf df 4d 70 bf 16 6a 39 c0 d2 87 ad 3f
       -1.6719881 -0.9386882 -2.8971 1.3557074
000080 98 2d af 3f f1 ed 15 40 c9 51 a1 40 c5 09 8b c0
       1.3685789 2.3426478 5.0412335 -4.3449426
000090 72 92 14 c0 3c 0c d4 bf 93 36 70 bf f5 28 3a c0
       -2.3214383 -1.6566234 -0.93833274 -2.9087498
0000a0 e6 81 3a c0 e0 9c aa 3f fd a1 17 40 94 d6 a0 40
       -2.9141784 1.3329124 2.369262 5.0261936
0000b0 eb 6e 8b c0 10 2d 16 c0 10 8a d6 bf 3e 70 70 bf
       -4.35729 -2.3465004 -1.6760883 -0.9392127
0000c0 72 4e 7a bf 04 91 38 c0 92 70 af 3f 3e d7 17 40
       -0.9777595 -2.883851 1.3706229 2.3725123
0000d0 09 55 a1 40 51 bb 8a c0 34 18 16 c0 04 bd d4 bf
       5.0416303 -4.335366 -2.3452272 -1.6620183
0000e0 46 bd d6 bf f4 76 75 bf f2 13 3a c0 d8 36 aa 3f
       -1.6776512 -0.95884633 -2.9074674 1.3297987
0000f0 17 12 16 40 03 17 a1 40 0a ac 8b c0 c2 6b 14 c0
       2.344854 5.034059 -4.364751 -2.319077
