encoder_fold_2_shift_5.pt (torch, 1703 bytes, 1 tensors)

encoder.0.weight f4 [8, 8]
00000000: dd5a 50c0 4221 b73f 4e4d 14c0 3a3d 7b3d
00000010: 10d1 69bf 0dbc f140 b145 5840 9bc9 5040
00000020: b0b7 5240 4b0d 52c0 2a78 b93f c251 15c0
00000030: a118 903d e05e 6bbf 62e0 f140 e5e9 5440
00000040: e985 5440 8a25 5340 71bc 53c0 44dc bb3f
00000050: da1f 14c0 2d5e 7a3d 8772 61bf eeb7 f040
00000060: d4e6 f140 75dc 5540 21a3 5240 4ab9 50c0
00000070: 6469 ba3f cdae 12c0 cb3f a03d 8114 61bf
00000080: 42db 66bf 4b7d f040 d044 5840 a39e 4f40
00000090: 53bb 4fc0 cc5b b93f 6be8 13c0 d925 973d
000000a0: d0d7 8a3d b4d3 63bf 72c2 f140 431e 5740
000000b0: d9e3 4f40 b4e1 50c0 aedd bb3f a626 15c0
000000c0: e4e9 13c0 56eb 1e3d b52c 68bf d45e f040
000000d0: 6fc2 5640 1677 5140 9279 51c0 ddf8 b93f
000000e0: e604 b83f e3fa 12c0 26b8 383d 26d4 64bf
000000f0: b464 f140 a4ff 5740 3a92 5140 e8e6 4fc0
-3.2555459 1.4307024 -2.3172183 0.061337687 -0.9133463 7.5542054 3.3792536 3.262305
3.2924614 -3.2820613 1.4489796 -2.333115 0.070359476 -0.9194164 7.5586405 3.3267758
3.3206732 3.2991662 -3.3083766 1.4676595 -2.314444 0.06112497 -0.8806538 7.5224524
7.5594273 3.3415806 3.2912066 -3.2613091 1.4563413 -2.291919 0.078246675 -0.8792191
-0.9017831 7.5152946 3.3792 3.2440574 -3.2458084 1.4481139 -2.3110607 0.07380266
0.06779444 -0.8899491 7.554986 3.361222 3.2482817 -3.2637758 1.4677026 -2.330484
-2.3111506 0.038798653 -0.9069322 7.5115757 3.3556173 3.2728934 -3.273045 1.4529072
1.4376495 -2.296563 0.045097493 -0.8938621 7.543543 3.374978 3.27455 -3.2484684
