modelwoOperator_fold_2_shift_5_app1_full_features.pt (torch, 3796 bytes, 2 tensors)

encoder.0.weight f4 [9, 40]
000000 1f d5 23 c1 00 34 dc 3f 49 51 db 3e 39 d8 f1 40
       -10.2395315 1.7203369 0.42835453 7.5576444
000010 1e 93 e4 3f a8 3e e9 c0 d4 e6 21 40 6b b2 81 41
       1.7857397 -7.2888985 2.5297136 16.212118
000020 1a a9 17 c1 0c e0 d7 be 4d 09 aa bf be 5a cf 40
       -9.478785 -0.42163122 -1.3284088 6.479827
000030 9b 8f 1b bf da e0 09 c1 e3 a8 b3 be 34 51 5e 41
       -0.60766 -8.617395 -0.35089788 13.894825
000040 2f 76 59 c0 2b 06 40 40 34 01 04 40 01 06 be 3f
       -3.3978384 3.0003765 2.0625734 1.4845582
000050 97 9e bb bf 91 d9 4d c0 1d ff df bf 4f f9 aa bf
       -1.4657773 -3.2164042 -1.7499729 -1.3357333
000060 e5 0e 40 40 ca 0e dc 40 71 4e a4 3f 5e ca 63 40
       3.000909 6.8768053 1.2836438 3.5592265
000070 0d 1f 59 c0 3a 86 47 c1 54 4e e9 3f 02 50 4e 3e
       -3.3925202 -12.47027 1.8227029 0.20147708
000080 9b 82 d4 c0 15 38 f7 40 f1 2c bb 40 4d a9 30 41
       -6.640943 7.725596 5.849236 11.041333
000090 0c 09 d7 40 9e 59 7c c0 db 87 b0 40 78 2f 54 41
       6.7198544 -3.9429698 5.516584 13.261589
0000a0 a5 7c f0 3e ba 7a 85 c1 dd a5 04 c1 f4 46 7e 41
       0.46970096 -16.684925 -8.290494 15.892323
0000b0 27 11 19 41 82 73 47 40 fe 19 8d c1 10 58 15 c1
       9.566688 3.116425 -17.637691 -9.334
0000c0 0f c1 0a 3f 8c ea 80 c1 11 14 de c0 ef 76 85 41
       0.54200834 -16.114525 -6.9399495 16.683073
0000d0 d9 8a 1c 41 5c b6 3f 40 c8 38 5e c1 5e d7 05 c1
       9.783898 2.9955053 -13.888863 -8.36508
0000e0 4f 62 52 40 8b a1 02 bf fa d9 80 bf 22 cb c7 3f
       3.2872503 -0.51027745 -1.0066521 1.5608866
0000f0 69 5b 8d 3e 05 43 86 3f ba 7b 9e 3f 10 cc 03 c0
       0.27608803 1.0489203 1.2381508 -2.05933
000100 20 15 92 3f 9d 53 79 c0 1f 81 15 c0 9b 5f 2a 40
       1.1412697 -3.8957283 -2.336006 2.6620853
000110 44 0b 22 41 03 98 cc 40 1f fa 25 c1 f3 e5 81 c0
       10.12775 6.393556 -10.373565 -4.05932
000120 39 d7 c0 bf 1b b4 8b c1 80 8b 51 c1 f6 ff 77 41
       -1.5065681 -17.462942 -13.096558 15.49999
000130 d6 0d 23 41 84 2b 94 3f a7 bc 9f c1 72 31 2b c1
       10.190878 1.157578 -19.967115 -10.699572
000140 bc 95 39 40 b0 ab 91 40 36 cd 86 3e 61 0d 82 c1
       2.899764 4.552208 0.2632844 -16.256533
000150 bf 50 e4 c0 68 7b 5a 40 f7 fc 22 3f c5 a4 4f c1
       -7.1348567 3.4137821 0.63667244 -12.977727
000160 8a 02 fc 3f 31 4b c8 40 10 6d c9 3f 89 e8 7a c1
       1.9688275 6.2591786 1.5736408 -15.681771
000170 45 fe ab c0 52 68 79 40 1a d5 fd 3f 34 7f 3e c1
       -5.3747888 3.8969922 1.9830658 -11.906055
000180 83 b9 63 40 93 f3 ba bf d0 cc 97 bd ca 97 4c bf
       3.5581977 -1.4605583 -0.07412112 -0.7991911
000190 55 40 f7 3f 6e 87 9d 40 b9 c5 4a 40 a8 66 c6 3f
       1.9316508 4.922782 3.168318 1.5500078
0001a0 60 7a 4a bf 38 5e f8 bf 58 1b 5b bf 80 76 da bf
       -0.7909298 -1.9403753 -0.855886 -1.7067413
0001b0 33 3a cb bf f4 c7 05 41 90 c0 5a 3f a2 61 7f c0
       -1.5877136 8.361317 0.8545008 -3.990334
0001c0 41 1a 0a bf eb a5 2b bf f5 02 ae c0 46 6a a0 c1
       -0.5394631 -0.67050046 -5.437861 -20.051891
0001d0 55 bc 10 c1 9a 21 32 40 d4 4a 47 bf 5c dc 32 c1
       -9.0459795 2.7833009 -0.77848554 -11.178799
0001e0 6e 2a a9 be 8d a5 50 41 f9 29 d2 c0 b5 68 60 c0
       -0.33040184 13.040418 -6.5676236 -3.5063908
0001f0 7e 74 d5 40 8a 81 d8 40 64 df 4d 41 c7 35 29 41
       6.67047 6.765813 12.867039 10.575629
000200 32 61 ca 3f 2f ff 5c 41 50 59 cc c0 f7 d7 9c c0
       1.5810912 13.812301 -6.3859024 -4.901363
000210 40 62 a1 40 65 96 87 40 92 b0 23 41 bb 9e 14 41
       5.0432434 4.2371087 10.230608 9.288753
000220 2b ee 89 c0 32 0b da bf ec 4a 0e bf b1 a6 f7 3e
       -4.310323 -1.7034667 -0.5558307 0.48369363
000230 62 4d a3 40 2a 69 70 40 75 b2 9a 40 61 76 54 3f
       5.103196 3.7564187 4.8342843 0.8299313
000240 e8 3c 7f be 6f f3 51 3b 6c 1d 2a c0 10 77 db be
       -0.24925578 0.0032035967 -2.6580458 -0.42864275
000250 6f 1c 91 40 4b a0 5c bf ff c3 48 41 64 c5 96 bf
       4.534721 -0.8618209 12.547851 -1.1778989
000260 35 5f 5d c0 1f a3 1b 41 c3 5d fb c0 af 64 ca c0
       -3.458936 9.7273245 -7.8551955 -6.3247905
000270 75 06 24 41 c0 6d 2c 41 9f e0 86 41 bd 95 20 41
       10.251576 10.776794 16.859678 10.036557
000280 9b 52 3f c1 f6 89 28 c1 71 bf fa c0 d8 8d 5a c1
       -11.957667 -10.533682 -7.8358693 -13.65963
000290 58 22 fd c0 b0 50 0d c0 f2 67 55 41 df c3 96 41
       -7.9104424 -2.2080498 13.337877 18.84564
0002a0 f8 6b 3e c1 04 27 30 c1 30 65 f3 c0 bc 9d 64 c1
       -11.90136 -11.009525 -7.606102 -14.288509
0002b0 ab eb a4 c0 aa 01 62 bf 2c 87 2b 41 4a 3f 8a 41
       -5.153768 -0.8828379 10.720501 17.280903
0002c0 25 7d 47 40 e8 0b 79 40 f5 67 e6 3e d7 97 13 c0
       3.1170132 3.8913517 0.45001188 -2.3061426
0002d0 3f 69 06 c0 f9 61 94 3e 7f a5 dc 3e 03 27 83 40
       -2.1001737 0.28980997 0.43095013 4.098512
0002e0 42 91 53 c0 55 c7 9b bf 2b 10 13 bf 42 e3 2c c0
       -3.3057408 -1.2170206 -0.57446545 -2.7013707
0002f0 96 4f ba c0 27 c7 c8 3f 5a 31 ab 40 50 da e9 40
       -5.822215 1.5685776 5.3497744 7.3078995
000300 4a ed 2b c1 82 ef 0d c1 bc 6c b2 c0 ed be 6a c1
       -10.745432 -8.870974 -5.5757732 -14.671613
000310 08 1d 2c c1 2a 8f 9e c0 7f 83 34 41 c0 2d 8a 41
       -10.757088 -4.954976 11.282104 17.272339
000320 c4 86 94 40 b4 db d0 c0 00 ac d7 3f 35 5d 94 c1
       4.641451 -6.526819 1.6849365 -18.545511
000330 56 f9 59 c1 25 7e 00 c1 1e 85 34 40 7f 3b e9 c0
       -13.623373 -8.030797 2.8206248 -7.2885127
000340 94 8b e0 3f d3 a8 ea c0 c6 f2 88 3f 1f b3 8d c1
       1.7542596 -7.3331084 1.0699089 -17.712461
000350 0b 61 3d c1 78 b9 c3 c0 03 b5 3a 40 8b c2 cd c0
       -11.836192 -6.11639 2.917298 -6.429998
000360 90 0e 90 40 74 4b bc 3f 46 11 98 bd f1 c1 bc bf
       4.5017776 1.4710526 -0.0742517 -1.4746686
000370 de 77 83 c0 f9 c7 85 bf 1a 63 70 bd 7e 1f b5 3f
       -4.108382 -1.0451652 -0.05868826 1.4150236
000380 2b df 55 40 b3 cc d5 3f 61 50 54 3e 10 37 45 c0
       3.341746 1.6703094 0.20733787 -3.0814857
000390 da fa 14 c1 f0 39 4c 3f 40 ed 61 c0 7a fa 88 3f
       -9.311243 0.79775906 -3.5301056 1.0701439
0003a0 28 02 1e 41 3c 9f ac c0 c4 55 d4 3f 4f cf 97 c1
       9.875526 -5.394438 1.6588674 -18.976225
0003b0 69 80 86 c1 0d ac 2a c1 2d 3a 1d 40 90 bc 02 c0
       -16.8127 -10.667005 2.4566758 -2.042759
0003c0 ee 60 13 c1 21 d8 80 c1 f6 2e 3b 41 23 9e 2a 41
       -9.211164 -16.105532 11.698965 10.663608
0003d0 41 7b 48 c1 91 9a 00 c1 68 8f 1e c1 f0 75 1b c1
       -12.530091 -8.037736 -9.910011 -9.716293
0003e0 ad 02 1b c1 0e e1 72 c1 86 3d 39 41 6b df 2a 41
       -9.688153 -15.179945 11.57752 10.679545
0003f0 b9 e9 21 c1 c9 43 c7 c0 62 f0 19 c1 e5 88 21 c1
       -10.119561 -6.2270246 -9.621187 -10.0959215

classifer.0.weight f4 [9, 9]
000000 e0 7b 07 3f b0 95 96 c0 a0 f1 37 40 40 e3 2a 40
       0.52923393 -4.7057724 2.8741226 2.6701202
000010 e0 87 8a 40 a7 c5 f9 40 41 aa 05 c1 9b 4e 08 c1
       4.3290863 7.8053775 -8.354066 -8.519191
000020 c9 b5 6f c0 f2 e4 57 40 51 d1 b5 40 fd 29 5d c1
       -3.7454703 3.3733487 5.6818013 -13.822751
000030 ba cc 3d c0 5c d3 37 c1 a1 94 61 c1 30 d8 94 40
       -2.9656205 -11.489101 -14.098786 4.65139
000040 41 cc 85 40 a4 28 93 c0 a7 b0 1e bf c2 d5 15 c1
       4.1811833 -4.598711 -0.619883 -9.364687
000050 58 09 25 40 49 9a 54 c0 a6 4f 2d be 6a e8 e2 40
       2.5786953 -3.3219168 -0.16924915 7.090871
000060 fd 9f 23 40 3c 73 84 3f 97 d8 f4 3c cd e3 4e 40
       2.55664 1.0347667 0.029888434 3.2326539
000070 cc 9d 97 3e 4d f4 cb c0 46 9a 51 bf 30 a2 82 40
       0.29612577 -6.373572 -0.8187603 4.0822983
000080 64 7c ca bf d5 c5 47 c0 54 db 35 c0 b5 9f e8 40
       -1.5819211 -3.1214497 -2.8415117 7.2694955
000090 36 f2 d8 bf 95 7c 1c 40 0d 72 3f 40 1a 7c 83 40
       -1.6948917 2.445104 2.991336 4.108899
0000a0 3d 05 35 c1 8e bd 09 c1 e9 45 b5 3f 2a 61 ed 3f
       -11.313779 -8.608778 1.416196 1.8545277
0000b0 ea 37 0e c0 5b 40 04 40 ea 28 c7 c0 5a 4c df bf
       -2.2221627 2.066428 -6.2237444 -1.7445176
0000c0 8c d2 03 40 9a 32 ae 40 b4 93 8f c0 bd f0 21 40
       2.0597258 5.443677 -4.48678 2.5303185
0000d0 b8 53 8b bf 9c 6b 06 c1 05 8f a0 bf b9 86 cd 40
       -1.0884924 -8.401272 -1.2543646 6.4226956
0000e0 e0 58 79 3f c0 ba b7 c0 6c 51 9b c0 e9 0b 42 40
       0.9740124 -5.7415466 -4.853689 3.031977
0000f0 9f 63 f9 3f 46 89 3e 3f 79 d5 06 c0 bd 69 01 40
       1.9483527 0.7442821 -2.1067793 2.0220788
000100 2f 42 17 c1 d3 51 64 40 20 00 b3 40 8e 12 d6 c0
       -9.453658 3.5674942 5.5937653 -6.689765
000110 98 d9 66 c0 25 d3 36 c1 37 52 d4 40 12 2a 83 c0
       -3.6070309 -11.426549 6.635036 -4.0988855
000120 26 eb 2a c1 4a 80 7b 40 f4 26 95 40 2b 3f 91 c0
       -10.682409 3.9297051 4.661005 -4.538961
000130 b5 a5 6c 40 7e db fc 3f 75 29 20 c0 84 4f e2 c0
       3.697614 1.9754484 -2.5025303 -7.0722065
000140 a7 19 09 41
       8.568763
