modelwoOperator_fold_1_shift_6.pt (torch, 2466 bytes, 2 tensors)

encoder.0.weight f4 [9, 8]
00000000: 19a0 ea40 8017 e940 b444 0d41 5ce0 0a41
00000010: 215d d240 9d7a d940 e3c4 1741 2a1c 1341
00000020: d869 d4c1 5b63 a6c1 2acb 2e41 d7ea db40
00000030: 4bce d3c1 c692 a6c1 47b6 2d41 ce11 de40
00000040: 380a 2940 99c1 9440 a2d8 da40 11e1 a140
00000050: 3db0 9040 add9 8340 99c9 c140 4c52 d140
00000060: 97cb 82c0 9999 3bc0 deaa a7c0 3ec9 fac0
00000070: 9557 44c0 6368 16c0 211b e2c0 fc20 c4c0
00000080: cf7f 4bc0 e3ff 92c0 0b86 cdc0 fe1a 83c0
00000090: 336f 95c0 9b42 8ec0 3630 a4c0 8aeb c1c0
000000a0: 9a90 8e40 8b98 8140 f1e3 c140 b924 d940
000000b0: 707a 1940 aba0 9340 3176 e940 7878 8a40
000000c0: 1ed1 b6c1 1d36 6ec1 9138 3342 98b6 0542
000000d0: c878 b8c1 9e3b 6dc1 d044 3342 ab34 0542
000000e0: d49d 98c1 e150 97c1 9c98 9dc1 6fc1 9cc1
000000f0: 2fe8 99c1 9b40 97c1 b1be 9dc1 b0d9 9ac1
00000100: cc69 5cc0 e608 71c0 f9a8 e1c0 7fd2 bac0
00000110: a4ea 5ec0 fad7 93c0 ce45 c4c0 759c c4c0
7.332043 7.2841187 8.829273 8.679775 6.5738683 6.7962174 9.485568 9.194376
-26.551682 -20.798513 10.924601 6.872417 -26.475729 -20.821667 10.857001 6.9396734
2.6412487 4.6486325 6.8389444 5.058724 4.5215135 4.1203218 6.055859 6.541296
-4.0873523 -2.9312499 -5.239608 -7.8370657 -3.0678456 -2.3501213 -7.0658116 -6.1290264
-3.1796758 -4.593736 -6.4226127 -4.097045 -4.669824 -4.4456306 -5.130885 -6.0600023
4.4551516 4.049871 6.059075 6.7857327 2.398098 4.613363 7.2956777 4.3272057
-22.852108 -14.888211 44.80524 33.428314 -23.058975 -14.827055 44.8172 33.301434
-19.077065 -18.914492 -19.699516 -19.59445 -19.23837 -18.906546 -19.718111 -19.356293
-3.4439573 -3.766168 -7.0518765 -5.8381953 -3.4830713 -4.6201143 -6.133521 -6.1440988

classifer.0.weight f4 [9, 9]
00000000: db02 e3be 4a7f a9c1 777a cf40 e13a a7c1
00000010: af93 a7c1 2261 ea40 1f60 1641 e468 8f42
00000020: b9bf 80c1 3aef f73f 252b 23c1 ea96 663e
00000030: ecb6 5cc0 aac2 61c0 a4b6 89be 6ca8 a240
00000040: c0d4 89c1 eb0d 9fc0 8dbb 41bf a461 37c1
00000050: ef68 26c0 59a8 943f 799b 673f bea5 56c0
00000060: 3dc4 eb40 aa9c 6cc1 3091 0d3f 8160 b340
00000070: 19a5 cb41 29a4 8d40 fb40 31c0 bcff 2fc0
00000080: d256 8b40 e93b a7c1 0864 b0c1 01b6 e9c0
00000090: 8d0b e2c0 af94 0441 af8b f5c0 2a6e 1641
000000a0: a611 1941 175c efc0 fcb3 5cc0 8773 ae40
000000b0: 577b 2741 ef69 1bbe 7d22 8940 7b87 d6bf
000000c0: 13ac 6040 e91f 5d40 6949 f4bf 621d 5bc0
000000d0: 80c9 aac1 b5d7 2540 3b30 00c0 1f9f 7cbf
000000e0: 3588 4ec0 4a3e 7a40 7fcf 7140 af09 60c0
000000f0: 3944 423f 748c 0dc1 f084 6a40 a372 8940
00000100: e5b1 acc0 406a d040 25ae 6bc1 f2a8 69c1
00000110: 4593 d440 c4c3 bebf c25e a841 9034 6ec1
00000120: 4c2d 06c2 fba7 e941 f91c e0c1 8608 e441
00000130: 9d0b e641 8296 d8c1 b475 cac1 8d25 6642
00000140: 5bb4 0342
-0.44338116 -21.187153 6.4836993 -20.90375 -20.947111 7.324357 9.398467 71.704865
-16.093615 1.9369881 -10.198033 0.22518507 -3.4486647 -3.5275064 -0.26897156 5.0830593
-17.228882 -4.970449 -0.75676805 -11.461338 -2.6001546 1.1613876 0.9047161 -3.353866
7.367705 -14.788248 0.55299664 5.6055303 25.455614 4.426289 -2.769591 -2.7499838
4.354348 -20.904253 -22.048843 -7.3034673 -7.06391 8.2863 -7.673301 9.4018955
9.566809 -7.4799914 -3.4484854 5.4516025 10.467612 -0.15177129 4.28546 -1.6760095
3.5105026 3.4550726 -1.9084903 -3.4236684 -21.348389 2.5912907 -2.0029438 -0.986803
-3.2270634 3.9100518 3.7782896 -3.500591 0.7588535 -8.84679 3.6643639 4.2952437
-5.3967156 6.51297 -14.730016 -14.603746 6.642977 -1.4903493 21.046268 -14.887833
-33.544235 29.207022 -28.014147 28.504162 28.75567 -27.07349 -25.307472 57.53667
32.92613
