modelwoOperator_fshift_2_app2_5motions_full_features.pt (torch, 3814 bytes, 2 tensors)

encoder.0.weight f4 [9, 40]
0	0x41377c2f	11.467818
1	0x4060e5ea	3.5140328
2	0x3e76bb27	0.2409483
3	0x40af13b7	5.4711566
4	0x416f24ee	14.946516
5	0x41970bbb	18.880728
6	0x414f2e5d	12.948819
7	0x417782bd	15.469419
8	0x4198531a	19.040577
9	0x41a3afb9	20.460802
10	0x41bb6a94	23.42704
11	0x41e0d04f	28.101713
12	0x3f521f97	0.8207945
13	0xbef06ede	-0.46959585
14	0x3ef54ca8	0.47910047
15	0xbed3e4f5	-0.41385618
16	0xbec889dc	-0.39167678
17	0xbed8efa4	-0.4237033
18	0xbfc26dcb	-1.5189756
19	0xc00c5879	-2.1929
20	0xbfbb95c7	-1.4655083
21	0xbf96e997	-1.1790036
22	0xbf8e6a8c	-1.1126266
23	0xc00bb174	-2.1827059
24	0xbf63602b	-0.88818616
25	0xbf67b2d0	-0.9050722
26	0xc01e2e8f	-2.4715917
27	0xbf82b3c3	-1.0211109
28	0x3e6bc859	0.23025645
29	0x3d87e780	0.06635952
30	0xbdc6ddd7	-0.09710281
31	0x3f5c38d6	0.86024225
32	0xbfc88126	-1.5664413
33	0xc06cc096	-3.6992545
34	0xbffccad8	-1.9749403
35	0xc175e164	-15.367527
36	0xc018f886	-2.3901687
37	0xbe6b296b	-0.22965018
38	0x40947410	4.639168
39	0xc0081295	-2.1261342
40	0xc0b4e239	-5.652615
41	0x412cfb0b	10.81129
42	0xc1425b66	-12.147314
43	0xc1c470fc	-24.555168
44	0xc1a9554e	-21.166653
45	0xc1c492c1	-24.571657
46	0x411c45cd	9.767041
47	0x415a287b	13.634883
48	0x418637a7	16.777174
49	0x41991532	19.13535
50	0xc1322fa1	-11.136628
51	0xc19eb478	-19.83812
52	0xc09d64a3	-4.9185348
53	0xc14645ac	-12.39201
54	0xc0204b24	-2.5045862
55	0xbf874434	-1.0567689
56	0x3ff80647	1.9376916
57	0x40b4c59d	5.6491227
58	0xbde93ae1	-0.113881834
59	0x3fd88006	1.691407
60	0xbfbe75ac	-1.4879661
61	0x3f522466	0.8208679
62	0xbef0150c	-0.46891057
63	0xbf06d674	-0.5267098
64	0x3e6619dc	0.22470802
65	0xc0536a98	-3.303381
66	0xc08fe331	-4.4964833
67	0xbf985dd7	-1.1903638
68	0xbf6694a3	-0.9007055
69	0xbe4e83c0	-0.20167446
70	0x3fab9d06	1.3407295
71	0x3ffc3569	1.97038
72	0x40325d0b	2.786929
73	0x40792872	3.8930936
74	0xc037e499	-2.8733275
75	0xc207da71	-33.96332
76	0xc1804f54	-16.038734
77	0xc1b44c49	-22.537249
78	0xbe8c1077	-0.27356312
79	0x406e7876	3.7261024
80	0xc0f50d8e	-7.6579046
81	0x421ad102	38.70411
82	0x41f4046b	30.502157
83	0x401bbee6	2.4335265
84	0x3f00eb99	0.50359493
85	0xc165faee	-14.373762
86	0xc0759308	-3.837099
87	0x411e0634	9.876514
88	0x403ace78	2.9188519
89	0x420069c0	32.10327
90	0x41c6919c	24.821098
91	0xc10f2dd7	-8.948691
92	0x40a313d8	5.0961723
93	0xc089261d	-4.2859025
94	0xc0747c02	-3.8200688
95	0xc1046d3c	-8.276669
96	0xbff3e477	-1.9054097
97	0x40cdceae	6.4314795
98	0x40aaed4b	5.3414664
99	0x3ed0a3ff	0.4075012
100	0xbf0d88ba	-0.55286753
101	0xbebb2813	-0.36554012
102	0xbfe0837f	-1.754013
103	0x402c35a4	2.690774
104	0x406b9edd	3.6815712
105	0xc0036ba9	-2.053446
106	0x3e0fb14c	0.14032477
107	0xc0004301	-2.0040896
108	0xc03edb0a	-2.982119
109	0xc04393c9	-3.055895
110	0x404fba58	3.2457485
111	0x4036daa5	2.857095
112	0x3e21d538	0.15803993
113	0x40f3a925	7.6143975
114	0x3f8c0117	1.0937833
115	0x4141b733	12.107226
116	0x40b058b3	5.5108275
117	0xc1ef7e6e	-29.936733
118	0xc18938c4	-17.152718
119	0xc1840fb2	-16.507664
120	0x40d662c9	6.6995587
121	0x40edf647	7.436313
122	0x4102cd23	8.175082
123	0x3f6740eb	0.9033343
124	0xc07cf57a	-3.9524827
125	0xc18b00cb	-17.375387
126	0xc0fd85a7	-7.922565
127	0x41dbd9ec	27.481407
128	0x3fea64e5	1.831204
129	0xbfdbd99a	-1.7175782
130	0xc01c06c2	-2.4379125
131	0xc0c616fb	-6.190305
132	0xc1d90717	-27.128462
133	0xc11a67c3	-9.650332
134	0xc12f4fb8	-10.956963
135	0xc0e725d5	-7.223368
136	0xbe0b0378	-0.13575542
137	0x3feca7a5	1.8488661
138	0x40137c99	2.3044798
139	0xc0850cbb	-4.157804
140	0xbf63778c	-0.8885429
141	0xbe0c807b	-0.13720886
142	0x40215053	2.5205276
143	0x40b6e2d7	5.7151904
144	0x4044901d	3.071296
145	0x40910bdc	4.5326977
146	0xbf2cd04d	-0.6750534
147	0xc09f6198	-4.9806633
148	0x3f2659b5	0.6498063
149	0xbe98125d	-0.2970151
150	0x3cd32998	0.02577667
151	0x416ed5c6	14.927191
152	0x421539b7	37.306362
153	0x419636de	18.77679
154	0x4152e7e2	13.181612
155	0x40aa03c3	5.312959
156	0xc0b91e2d	-5.7849336
157	0xc1a4016e	-20.500698
158	0x403a3ca0	2.9099503
159	0x41d1e0e1	26.234804
160	0xc1cc8924	-25.566963
161	0xc1008cb6	-8.034353
162	0x411af6f6	9.685293
163	0x40ffaa7e	7.989562
164	0x4128f580	10.559937
165	0xc0b50a8a	-5.6575365
166	0xc1c240f9	-24.281725
167	0xc1a3b944	-20.465462
168	0xc1cc35b1	-25.526217
169	0xc12bc70d	-10.736096
170	0x40c4a7a6	6.145465
171	0x40c155a7	6.0417056
172	0x40eb9e7d	7.3630967
173	0x3f2c2dd3	0.6725742
174	0x3f3f65a2	0.74764454
175	0xbfd8bfc3	-1.6933521
176	0xc00a1342	-2.1574254
177	0x3cdd0b7b	0.026983013
178	0x3fe4d297	1.7876767
179	0xbe730c9a	-0.23735276
180	0xbf34ca56	-0.7062124
181	0xc07a3b55	-3.9098713
182	0xbfc556e8	-1.5417147
183	0x3f19ed36	0.6012758
184	0x404c1289	3.1886313
185	0x3fdb088a	1.7111981
186	0x402d3aed	2.7067215
187	0xbe9dfc38	-0.3085649
188	0xbe1782fe	-0.14796063
189	0xc0305666	-2.7552733
190	0xbfe6e703	-1.8039249
191	0xc06be677	-3.6859415
192	0x4057a88d	3.3696625
193	0x411a5ad6	9.647177
194	0x4103a8d6	8.22872
195	0x408551be	4.1662283
196	0x41458142	12.344057
197	0xc1141787	-9.255744
198	0xc2111994	-36.27498
199	0xc1992cf8	-19.146957
200	0xc18a5883	-17.293219
201	0xc1706f15	-15.02712
202	0xc1ab06e6	-21.378368
203	0xc12a387c	-10.63879
204	0xc15adfd2	-13.679644
205	0xc16413d1	-14.254838
206	0xc18c80bf	-17.562864
207	0xc1883bd5	-17.029215
208	0xc13852d1	-11.520219
209	0xc119f334	-9.621876
210	0xc165591d	-14.334256
211	0xc04cf2a7	-3.2023103
212	0x3f91027e	1.1328886
213	0x402f602c	2.7402449
214	0x3fd1bd31	1.6385862
215	0x3fa6e703	1.3039249
216	0x3f88cd9f	1.068775
217	0x3f48191d	0.7816332
218	0x3f4a89f9	0.7911678
219	0x3fdcbf03	1.7245792
220	0x4003d734	2.06001
221	0x3f8c72d3	1.0972542
222	0x3f1a8ae1	0.6036816
223	0xbda4fcbc	-0.08056018
224	0x3e38cd8c	0.1804716
225	0xbe9a1396	-0.30093068
226	0xbf8d1d16	-1.1024501
227	0xbf5f1359	-0.871389
228	0xbb94dd8a	-0.004543011
229	0x3f937bad	1.1522118
230	0x3f3d1a00	0.738678
231	0x3e24f7b2	0.16110113
232	0x3fec8308	1.8477488
233	0x3ec77ffd	0.38964835
234	0xbfeec0e1	-1.8652612
235	0xc1f0307a	-30.02367
236	0xc1f127bf	-30.144407
237	0xc1d25513	-26.29154
238	0xc18b7aab	-17.434896
239	0xc1a0987f	-20.074461
240	0x41b36f62	22.429386
241	0x41490149	12.562814
242	0x4173ff59	15.249841
243	0x414bb02d	12.730512
244	0x413f2114	11.945576
245	0x4129a896	10.603659
246	0x416c0a32	14.752489
247	0x415f6103	13.9611845
248	0x412ad881	10.677857
249	0xc0e7da78	-7.2454185
250	0xc1679e6b	-14.476176
251	0xc17ec49f	-15.923003
252	0xbf168f3f	-0.58812326
253	0x3e952347	0.29128477
254	0x3fa429b8	1.2825232
255	0x3fa3353f	1.2750624

classifer.0.weight f4 [9, 9]
0	0xc11c020d	-9.750501
1	0xc13fa852	-11.978594
2	0xc13853f9	-11.520501
3	0x418ffe12	17.999058
4	0xc16ab6af	-14.6696005
5	0xc12bdfa6	-10.742102
6	0x40444ae1	3.0670702
7	0x4180cb4b	16.099264
8	0xc1ddde23	-27.733465
9	0xc0bfc869	-5.993214
10	0x411619ad	9.3812685
11	0x405d2f9c	3.4560308
12	0xc14ef5ab	-12.934978
13	0x40f3cc97	7.6187243
14	0xc2659376	-57.394005
15	0x41273d16	10.452414
16	0xc0a3aa87	-5.1145663
17	0x4139d101	11.613526
18	0xc04a7099	-3.1631224
19	0xc033b961	-2.8081896
20	0xc0d5b564	-6.6783924
21	0xc04c0406	-3.1877456
22	0xc0b22d7f	-5.5680537
23	0xc0a61717	-5.1903186
24	0xc0fdc715	-7.930552
25	0xc0c16c9a	-6.044507
26	0xc03669a5	-2.850198
27	0xc0560da4	-3.3445826
28	0xc017d43a	-2.3723283
29	0xc0d3bca1	-6.616776
30	0xc06128f5	-3.5181248
31	0xc0ab25ae	-5.3483496
32	0xc0acbcf3	-5.398065
33	0xc0fd1410	-7.908699
34	0xc0c43a85	-6.1321435
35	0xc027e467	-2.6233156
36	0xc04b704f	-3.1787298
37	0xc026ad44	-2.6043253
38	0xc0d66d7d	-6.7008653
39	0xc05912c3	-3.3917701
40	0xc0ad5c80	-5.4175415
41	0xc0afa96f	-5.489433
42	0xc0f9ee7f	-7.8103633
43	0xc0c1a5bb	-6.051481
44	0xc0312662	-2.7679677
45	0xc0333fae	-2.8007617
46	0xc01833ac	-2.3781538
47	0xc0cf6ebd	-6.482268
48	0xc05ce9dc	-3.4517736
49	0xc0ac2a0d	-5.380133
50	0xc0ad9a32	-5.4250727
51	0xc1053fab	-8.328044
52	0xc0bbdbe2	-5.870591
53	0xc034969e	-2.821693
54	0xc13f19b6	-11.943777
55	0x4026c1cc	2.6055784
56	0x3fc4cdca	1.5375302
57	0xc098a6b2	-4.7703485
58	0x407198f2	3.77496
59	0x40127ef4	2.2889986
60	0x3fd6c840	1.6779861
61	0xbfecb94e	-1.849405
62	0x40a4fb6b	5.1556907
63	0x4101f4e8	8.122292
64	0xc1f85aa1	-31.044252
65	0x416f7952	14.967119
66	0xbdcc77c9	-0.09983785
67	0xc1e54158	-28.656906
68	0xc06b2487	-3.6741045
69	0x4062ad68	3.5418339
70	0xc07fb384	-3.9953318
71	0xc10b26c6	-8.696966
72	0x413db150	11.855789
73	0x410418c1	8.256043
74	0xc0e4e696	-7.1531477
75	0xbfb7337b	-1.4312586
76	0x4108765f	8.528899
77	0x411f166d	9.942975
78	0xc14fe1a7	-12.992591
79	0xc08c4891	-4.383858
80	0x40b13f6f	5.5389934
