modelwoOperator_fshift_5_app2_5motions.pt (torch, 2514 bytes, 2 tensors)

encoder.0.weight f4 [9, 8]
00000000: c072 8841 2c04 41c0 eb86 d4c1 99ff 6041
00000010: e9a3 0dc2 521e da3f f293 6340 05a8 e2c1
00000020: d730 ec40 2fff bc40 1cc0 f23f 0e63 e840
00000030: 66e0 0e40 c787 ea40 7fe9 ae40 6523 5e40
00000040: cc31 00c1 d42f b43f 7fe5 b7c0 982d dbc0
00000050: 4496 9d3f 8f68 eac0 88bc 3ec0 1d0d 29c0
00000060: b94a f9bf ee4f 17c1 5fc6 093f 53f8 84c0
00000070: baa1 03c1 5662 2540 1e12 02c1 bd90 e7bf
00000080: 167e 2b41 ab8c 3941 c7d3 d540 b5e0 6041
00000090: 998c a240 e576 4e41 d146 1d41 3e4d 3041
000000a0: 2fb1 1041 33af 0e41 f16a c740 589b 2741
000000b0: bbe9 6f40 70ac 1e41 46c8 0141 70ff 0241
000000c0: 4375 8a42 ff40 e8c0 32f7 1fc1 0b47 4042
000000d0: 9427 08c2 43f5 f340 a65b 0f42 4fc1 cbc1
000000e0: ad87 db3f 0254 a840 0831 6e40 1839 39c0
000000f0: bc4c cc40 3af6 6e40 ea57 c33f ed42 0340
00000100: 9862 a8c0 eef2 a2c0 b7c3 84c0 49bc 70c0
00000110: 5112 1ec0 900a e3c0 e992 78c0 a51e 32c0
17.05603 -3.0158796 -26.565878 14.062402 -35.41007 1.7040503 3.5559049 -28.33204
7.380962 5.9061503 1.8964877 7.2620916 2.2324462 7.3290744 5.466003 3.4709103
-8.012157 1.4077096 -5.7467647 -6.8493156 1.2311482 -7.3252635 -2.980257 -2.6414254
-1.9475929 -9.457014 0.53818315 -4.155313 -8.226984 2.584127 -8.129423 -1.8091046
10.718283 11.596843 6.6821017 14.05486 5.079663 12.904027 9.829789 11.018858
9.043258 8.917773 6.2318044 10.475426 3.7486408 9.917099 8.111395 8.187363
69.22903 -7.257934 -9.99785 48.069378 -34.03865 7.623689 35.8395 -25.469389
1.715078 5.260255 3.7217426 -2.8941097 6.384367 3.7337785 1.5261204 2.0509598
-5.2620354 -5.0921545 -4.148891 -3.761492 -2.469868 -7.0950394 -3.8839667 -2.7831204

classifer.0.weight f4 [9, 9]
00000000: 9f5c 56c1 c616 0c3f 816a 28c0 b005 abc0
00000010: 0473 e83f 06eb 8f3f 687e ea40 cba1 28bf
00000020: 61e2 72c0 fd78 0f41 1cfb 8c40 22a2 e4c0
00000030: 14d3 a6c0 4581 b140 f36b 9340 000d 22c1
00000040: 437d 943f 3ecb 13c1 7f14 33c0 a80f afc0
00000050: 43f2 21c0 3127 32c0 f815 b5c0 0767 b0c0
00000060: 6349 a4c0 e218 a3c0 fb88 21c0 45f7 32c0
00000070: c7b2 a8c0 9edd 15c0 cae2 35c0 f95d bcc0
00000080: bc62 b3c0 85b2 a2c0 7af1 9bc0 38f5 33c0
00000090: 2dd9 2fc0 6c76 acc0 d56a 40c0 aed7 18c0
000000a0: 7625 acc0 fde4 b7c0 1de1 a8c0 e6de 9ec0
000000b0: b0d2 2ec0 9118 31c0 5468 aec0 8f2c 28c0
000000c0: 4fda 27c0 0f82 b3c0 1cd5 b5c0 2ea4 a0c0
000000d0: ea1b a6c0 cc0f 19c0 30f4 c440 22de 4bc0
000000e0: 6694 0c41 f8d9 0541 83e6 bcbf 0c2a 0fc0
000000f0: 2da6 99c0 c839 85c0 3ca2 0741 147e a7c1
00000100: d840 4540 5ec4 37c1 ad8f 50c1 9af2 a5bf
00000110: 134d e63e e0f3 4e41 fd7e e540 1ba2 29c1
00000120: b9fd 0742 596e 89c1 6a0b f941 7187 0142
00000130: 1bc6 abc1 349d a1c1 330f 82c1 5b2f 0cc1
00000140: b077 0542
-13.397613 0.5472225 -2.6315005 -5.3444443 1.81601 1.1243598 7.3279305 -0.65871876
-3.795067 8.967038 4.405653 -7.1447916 -5.2132664 5.54703 4.6069274 -10.128174
1.1600727 -9.23712 -2.798126 -5.470661 -2.5304115 -2.783642 -5.6589317 -5.5125766
-5.1339583 -5.0967875 -2.5239856 -2.7963421 -5.2718234 -2.3416514 -2.841967 -5.8864713
-5.6058025 -5.084292 -4.873227 -2.811842 -2.7476304 -5.389456 -3.0065205 -2.388164
-5.379573 -5.7467027 -5.2774796 -4.9647093 -2.7316093 -2.7671244 -5.4502354 -2.6277196
-2.6226995 -5.6096263 -5.6822643 -5.0200415 -5.1909075 -2.3915892 6.154808 -3.185433
8.78623 8.365715 -1.4757847 -2.2369413 -4.801535 -4.1633034 8.477108 -20.936562
3.0820827 -11.485441 -13.035077 -1.2964661 0.44980678 12.93454 7.1717515 -10.602077
33.997776 -17.17888 31.130573 32.382267 -21.471731 -20.20176 -16.257421 -8.761561
33.366882
