modelwoOperator_fold_3_shift_6_app1.pt (torch, 2496 bytes, 2 tensors)

encoder.0.weight f4 [9, 8]
11.102627 20.996878 19.793585 10.5887 1.0290221 4.532674 11.369191 18.149069
-10.942858 20.065983 -15.107311 -26.812313 -17.083527 -23.046501 -21.34544 -11.235889
-6.9329996 -11.605863 -15.041318 -6.3290887 -0.68010056 -19.908575 -26.826656 -11.245248
-10.720981 -6.0257807 -11.470199 -4.3791347 -2.303578 -24.18069 -31.476164 -7.9203835
14.383926 1.8212694 -28.145437 -15.164457 -6.066486 27.878359 35.579712 4.6495667
-17.679625 -12.897463 30.215052 29.838732 16.212803 -23.933569 -7.9138966 -7.202252
19.892094 28.884836 -2.389096 -20.816614 -12.854496 -21.22624 -27.40177 19.69853
-17.401299 -18.880075 24.12516 13.757117 10.7301 32.458984 30.684658 -17.618639
11.276757 -29.348255 -23.699133 14.865157 17.998865 31.68894 30.383507 3.7006683
00000000: 5ca4 3141 9bf9 a741 4359 9e41 516b 2941
00000010: ffb6 833f aa0b 9140 35e8 3541 4b31 9141
00000020: f215 2fc1 2287 a041 8cb7 71c1 9e7f d6c1
00000030: 10ab 88c1 3c5f b8c1 76c3 aac1 34c6 33c1
00000040: 22db ddc0 9db1 39c1 3da9 70c1 e587 cac0
00000050: 121b 2ebf c344 9fc1 fe9c d6c1 89ec 33c1
00000060: 2389 2bc1 32d3 c0c0 ef85 37c1 df21 8cc0
00000070: d26d 13c0 0e72 c1c1 2fcf fbc1 c873 fdc0
00000080: 9024 6641 5b1f e93f db29 e1c1 9ea1 72c1
00000090: a720 c2c0 e106 df41 a051 0e42 40c9 9440
000000a0: df6f 8dc1 025c 4ec1 6db8 f141 b9b5 ee41
000000b0: d2b3 8141 f377 bfc1 a43e fdc0 d978 e6c0
000000c0: 0223 9f41 2514 e741 f3e6 18c0 6d88 a6c1
000000d0: 04ac 4dc1 57cf a9c1 d336 dbc1 9796 9d41
000000e0: dc35 8bc1 650a 97c1 5400 c141 271d 5c41
000000f0: 7dae 2b41 00d6 0142 2e7a f541 f9f2 8cc1
00000100: 996d 3441 3ac9 eac1 d397 bdc1 afd7 6d41
00000110: adfd 8f41 f382 fd41 6c11 f341 c0d7 6c40

classifer.0.weight f4 [9, 9]
0.028276473 -6.7744417 -4.772518 -6.4750953 6.930245 -14.35363 -3.2149992 3.7965224
10.120507 4.782375 -11.821931 -15.125644 -14.985538 -9.896354 7.657019 4.917021
3.5140357 -16.62829 2.3830197 8.185575 -4.960715 -3.8858874 4.411741 -8.215394
5.918934 -8.336799 -7.2596498 -1.8172878 -10.707821 -1.4784752 -2.870756 -0.25597024
8.882151 -15.966107 9.690804 8.135316 2.821941 -0.24016228 -3.2127128 -0.08008395
-5.2310243 4.6802235 4.1278033 -2.9073431 -7.1526723 1.0775127 -4.7487 -5.520743
-6.627354 2.4086275 -0.08915486 -3.2873414 7.679273 1.9291222 -2.9563532 8.52063
7.7554307 9.43541 -3.9574454 1.468631 1.0641094 -3.942374 -4.3228884 0.6306769
-8.762902 0.4734046 -1.7022753 5.9781795 -8.972444 5.4903584 -13.4531975 8.684998
-14.816567 7.9688783 15.594741 13.999386 -1.2931774 1.2112354 -10.147743 2.976015
8.335771
00000000: 10a4 e73c 3ac8 d8c0 78b8 98c0 fb33 cfc0
00000010: 91c4 dd40 78a8 65c1 8cc2 4dc0 39fa 7240
00000020: 99ed 2141 3709 9940 a126 3dc1 a302 72c1
00000030: c3c4 6fc1 7757 1ec1 4d06 f540 3c58 9d40
00000040: f6e5 6040 bd06 85c1 6583 1840 1df8 0241
00000050: 2dbe 9ec0 61b2 78c0 fb2c 8d40 4172 03c1
00000060: e867 bd40 8763 05c1 0d4f e8c0 e39c e8bf
00000070: 3c53 2bc1 ad3e bdbf 77ba 37c0 880e 83be
00000080: 4a1d 0e41 2d75 7fc1 880d 1b41 412a 0241
00000090: ae9a 3440 1aed 75be 169d 4dc0 0e03 a4bd
000000a0: 8d64 a7c0 64c4 9540 f716 8440 e911 3ac0
000000b0: b1e2 e4c0 f0eb 893f 5af5 97c0 eda9 b0c0
000000c0: 4913 d4c0 f426 1a40 d396 b6bd cd63 52c0
000000d0: 9bbc f540 7aed f63f e434 3dc0 8054 0841
000000e0: 7d2c f840 70f7 1641 c946 7dc0 1afc bb3f
000000f0: bd34 883f db4f 7cc0 1a55 8ac0 0b74 213f
00000100: d934 0cc1 1662 f23e 28e4 d9bf 3f4d bf40
00000110: 218f 0fc1 04b1 af40 4c40 57c1 c0f5 0a41
00000120: a910 6dc1 0d01 ff40 0f84 7941 7cfd 5f41
00000130: d686 a5bf c309 9b3f 285d 22c1 0877 3e40
00000140: 515f 0541
