modelwoOperator_fold_3_shift_0_app1_5motions_full_features.pt (torch, 3914 bytes, 2 tensors)

encoder.0.weight f4 [9, 40]
000000 16 c2 af 40 85 3b b1 c0 26 91 bc c0 73 f3 ce c0
       5.492442 -5.5385156 -5.8927183 -6.467218
000010 56 56 f6 c0 8c fb 8a 40 52 e7 e1 c0 4b 1c 07 41
       -7.698039 4.3432064 -7.0594873 8.444407
000020 de 2b ac 40 e1 41 ab c0 00 70 bc c0 02 b7 cf c0
       5.380355 -5.351792 -5.888672 -6.49109
000030 a5 c6 fd c0 56 10 66 40 f7 93 e2 c0 f2 81 07 41
       -7.9304986 3.594747 -7.080562 8.469225
000040 95 36 44 3f 8e c2 15 bf 26 3f f0 bf 9d 3b 5f c0
       0.76645786 -0.5849999 -1.8769271 -3.4880135
000050 1d 78 de bf 3f e9 8d 3f bc 82 13 3f 79 37 04 40
       -1.7380406 1.1086806 0.5762136 2.0658858
000060 9b 57 81 40 50 51 52 c0 01 ef 9f c0 0e 5c eb c0
       4.041944 -3.286213 -4.9979253 -7.354987
000070 b9 cd 3b c0 0a 99 27 40 19 27 54 bc 0c af 70 40
       -2.9344313 2.6187158 -0.012948775 3.760684
000080 95 89 be 40 52 44 a4 c0 f8 f9 a2 c0 f4 23 b8 c0
       5.9542947 -5.13334 -5.093014 -5.754389
000090 87 4c f7 c0 66 cb 54 40 3b d6 ce c0 34 43 06 41
       -7.7280917 3.3249145 -6.463651 8.391407
0000a0 47 20 8e 40 69 ae 89 40 96 7a a8 40 2b 8a 04 c0
       4.44144 4.3025403 5.264964 -2.070933
0000b0 cd 31 71 c0 36 93 9c c0 c4 ce 8d c0 ba 05 c0 c0
       -3.7686646 -4.89297 -4.43149 -6.000699
0000c0 aa 90 9a 40 3d da 06 40 f3 21 b2 40 e9 7a 1d c0
       4.830159 2.1070702 5.566644 -2.4606268
0000d0 0d cf 63 c0 3f 88 90 c0 e3 d1 9c c0 3f b5 b5 c0
       -3.5595124 -4.5166316 -4.900621 -5.678375
0000e0 e7 dd 7c 40 66 a4 b6 3d c4 0d 97 40 ae 04 bf 3c
       3.9510438 0.08918075 4.7204304 0.023317661
0000f0 77 0e c8 3f 46 1a c2 3f ed 1b 79 c0 b6 bd f8 3f
       1.5629414 1.5164268 -3.8923295 1.9432895
000100 fe 3c 89 c0 52 8e 89 c0 15 2c 9e 40 11 0b 67 c0
       -4.2886953 -4.298623 4.942881 -3.6100504
000110 58 8e 97 c0 02 9d 97 c0 b1 7a b6 c0 e1 55 58 c0
       -4.736126 -4.737916 -5.702477 -3.3802416
000120 d6 e6 f4 3f 9d 88 3f be 0f 5e 6c 40 7b c7 1e c0
       1.9132946 -0.18704458 3.693241 -2.4809253
000130 63 9a 69 c0 8f 26 8b c0 d0 f4 9b c0 87 7d b2 c0
       -3.650048 -4.348457 -4.8736343 -5.577823
000140 9a 65 23 41 4d d0 97 40 f1 7d 73 40 d8 1d fb 40
       10.212305 4.7441773 3.8045619 7.847393
000150 7e df c8 40 fd 6b 69 40 45 2e 36 40 2f 7e ef be
       6.2772818 3.647216 2.846574 -0.46775958
000160 6e 97 1b 41 a4 5c bf 40 17 1d 70 40 b2 a8 f3 40
       9.72447 5.9800587 3.7517755 7.6143427
000170 06 94 cd 40 83 4e 6a 40 9d f6 35 40 26 d4 c3 be
       6.4243193 3.661042 2.843177 -0.38247794
000180 ed 3d 94 be bf 37 d6 bf 85 4a 83 c0 eb 3d 86 3e
       -0.28953496 -1.6735762 -4.1028466 0.26219115
000190 b0 3e ce bf be d7 0c c0 f2 2a 36 3d 04 d5 16 c0
       -1.6112881 -2.2006679 0.04447455 -2.3567514
0001a0 a0 e0 c1 40 a0 3b 3b 40 8c d3 7e 3f 99 e6 c8 40
       6.05867 2.9255142 0.99541545 6.278149
0001b0 6f 08 62 40 dc 11 6f 3f 92 08 66 3f da 42 25 3e
       3.5317647 0.93386626 0.8985683 0.16138783
0001c0 d8 59 2c 41 0f 87 89 40 9d 78 46 40 67 c0 d5 40
       10.7719345 4.2977366 3.1011117 6.6797366
0001d0 02 b2 c8 40 80 07 4c 40 d5 76 14 40 21 e3 11 3f
       6.2717295 3.1879578 2.319753 0.56987196
0001e0 de 85 28 c1 1d bc 34 c0 a6 69 60 bf 49 f9 da c0
       -10.532682 -2.8239815 -0.87661207 -6.8429303
0001f0 df cd a5 c0 72 26 7c c0 e2 be 24 c0 1d db 5a bf
       -5.1813807 -3.9398465 -2.5741506 -0.8549059
000200 11 ce 16 c1 39 ac a8 c0 43 9b 05 bf a9 f0 cf c0
       -9.425309 -5.2710233 -0.52190036 -6.4981275
000210 f8 86 aa c0 8b 23 6d c0 20 5f 29 c0 fc 68 56 bf
       -5.3289757 -3.7052944 -2.646431 -0.83753943
000220 08 6b 11 40 b7 c5 d6 3f 66 da 7c 40 40 d0 8b 3d
       2.2721577 1.6779088 3.95083 0.0682683
000230 a6 c4 fc 3f e9 78 04 40 35 6b 87 bf de 66 26 40
       1.9747512 2.0698798 -1.0579592 2.6000285
000240 92 27 ac c0 15 5c 34 c0 0c ed d3 3f 3e 1e b9 c0
       -5.3798304 -2.8181202 1.6556716 -5.7849417
000250 69 65 78 c0 b4 39 21 c0 5d e5 d4 bf 84 4f 64 bf
       -3.8811896 -2.519147 -1.6632496 -0.8918383
000260 70 35 31 c1 51 f8 82 c0 83 23 4a bf 72 5e b7 c0
       -11.075546 -4.092812 -0.78960437 -5.730279
000270 a2 a0 a0 c0 95 83 65 c0 e5 1f 1a c0 cc 34 cb bf
       -5.0196085 -3.5861561 -2.4081967 -1.5875487
000280 c5 9c c4 40 1f fb d7 40 c3 80 dc 40 f2 b1 09 41
       6.144137 6.7494044 6.890718 8.605944
000290 23 9b 01 41 a3 52 83 c0 5a 3c b2 40 e0 0f 10 c1
       8.100375 -4.1038375 5.569867 -9.003876
0002a0 a7 86 c2 40 37 e6 cf 40 13 f8 e2 40 3b aa 05 41
       6.078937 6.4968524 7.0927825 8.35406
0002b0 2c 0d 07 41 ee 6a 3c c0 0b 6d aa 40 58 5d 0b c1
       8.440716 -2.9440265 5.325811 -8.710289
0002c0 30 d2 12 40 0e 02 93 be e6 c7 e3 3f 38 81 21 40
       2.2940788 -0.28712505 1.7795379 2.523512
0002d0 2b 6f 80 3f f8 82 45 bf a5 2b c5 bf 4b 8c 87 bf
       1.0033926 -0.7715297 -1.5403944 -1.0589689
0002e0 d8 81 df 3f 21 cd fd 3f 8b e6 aa 40 92 8f f5 40
       1.74615 1.9828225 5.3406425 7.6737757
0002f0 bc 8b ab 3f f8 3b 47 c0 c0 4e 42 c0 4c b3 62 c0
       1.3402019 -3.1130352 -3.0360565 -3.5421934
000300 1a 4b ee 40 7c fe ad 40 a6 f6 c3 40 cb 50 f2 40
       7.4466677 5.437315 6.1238585 7.5723624
000310 6b 9f 05 41 7d aa 67 c0 75 7d 96 40 93 fb 04 c1
       8.35142 -3.6197808 4.7028146 -8.3114195
000320 02 fc 11 c1 2b a0 d1 c0 ea 51 f0 3f fc e3 c6 40
       -9.124025 -6.5508018 1.8774998 6.21533
000330 8e ed ca c0 89 dd a7 40 c1 57 c7 c0 5e 2e dc bf
       -6.3414984 5.245793 -6.229462 -1.720165
000340 8a e4 0d c1 72 d0 e2 c0 5f ad 14 40 22 44 bd 40
       -8.868296 -7.087945 2.3230817 5.914567
000350 29 11 d9 c0 8c cb a2 40 53 d0 c2 c0 fb 2a da bf
       -6.7833447 5.087347 -6.08793 -1.7044367
000360 16 b3 24 c0 b4 c0 75 bf d3 13 64 40 f2 ee 10 40
       -2.5734305 -0.95997167 3.56371 2.264584
000370 0e 5c de 3f 8a d3 25 40 34 51 a2 bf af 7d a7 bf
       1.7371843 2.5910363 -1.2681031 -1.308523
000380 47 7e d8 c0 7c 35 78 c0 7c 9d 56 40 ad 28 5a 40
       -6.7654147 -3.8782644 3.353362 3.4087327
000390 5b d3 5e bf ee ec 1c 40 c6 a7 de bf e4 01 29 c0
       -0.8704125 2.451961 -1.739495 -2.6407404
0003a0 ba 39 17 c1 a8 c9 b8 c0 a7 c7 43 40 37 d2 bb 40
       -9.451593 -5.7746162 3.0590608 5.869411
0003b0 c9 cd af c0 4a 0f c1 40 6c 6c b0 c0 39 69 28 c0
       -5.4938703 6.0331163 -5.513235 -2.6314223
0003c0 b2 3c e9 bc a2 f7 e9 c0 c1 37 d2 c0 fa 7b 1d c0
       -0.028471325 -7.3114786 -6.569306 -2.460692
0003d0 6f 4c 22 c1 3d bc 06 41 e7 7f ec c0 db f1 ea 40
       -10.143661 8.420957 -7.390613 7.3420234
0003e0 a5 51 fa be 1b cf b4 c0 b9 af dc c0 03 8f ce bf
       -0.48890415 -5.6502814 -6.8964505 -1.6137394
0003f0 e0 62 23 c1 7d 3d 02 41 ff ca d1 c0 6e 96 ef 40
       -10.211639 8.140012 -6.55603 7.487113

classifer.0.weight f4 [9, 9]
000000 f4 ed 78 c0 61 0e dd bf f8 f0 ed 3f c1 94 22 c0
       -3.8895235 -1.7270013 1.8589163 -2.5403292
000010 a8 63 28 40 4d d3 8d 40 7a 98 35 3e ac 69 a1 c0
       2.6310825 4.4320436 0.17733946 -5.0441494
000020 e9 2d 1c 40 15 a4 7d 40 50 89 14 bf dc 0a 3c 40
       2.4403021 3.9631398 -0.5802202 2.9381628
000030 4b ed 9b c0 ce 19 d9 be b7 61 81 c0 1d 57 23 40
       -4.8727164 -0.424025 -4.043178 2.552192
000040 a4 69 86 40 7d 66 be c0 5c 54 9e bf 48 43 52 bf
       4.2003956 -5.950011 -1.2369494 -0.82133913
000050 6f 05 a4 bf 11 7f 43 bf f3 76 55 bf 8d 13 27 bf
       -1.2814158 -0.7636576 -0.8338463 -0.6526421
000060 fa cd 83 bf d2 7f 46 bf aa 12 30 bf 78 8e 77 bf
       -1.0297234 -0.7753879 -0.6877848 -0.96701765
000070 0f 25 6f bf d8 47 63 bf 7c 20 00 bf b9 93 96 bf
       -0.9341592 -0.887815 -0.5004957 -1.1763831
000080 33 8d 80 bf b3 fb 90 bf 54 cc 38 bf b9 01 aa bf
       -1.004309 -1.1326813 -0.7218678 -1.3281776
000090 e7 a2 56 bf b2 40 44 bf 70 1d 85 bf 46 73 33 bf
       -0.8384232 -0.7666122 -1.0399609 -0.7009777
0000a0 9c 86 42 bf e9 39 49 bf c0 75 61 bf 6a f8 7b bf
       -0.7598665 -0.7860399 -0.880703 -0.98425925
0000b0 3f ab a0 bf 3e 7d 51 bf ac 98 3f bf aa 9e 4f bf
       -1.255226 -0.8183173 -0.74842334 -0.8110148
0000c0 0e a4 c0 be 0a 14 31 bf 3e fb 40 bf 6b 3b a1 bf
       -0.37625164 -0.691712 -0.75383365 -1.2596258
0000d0 81 bd 3c bf 75 3b 94 bf 70 77 76 40 5b cc 30 c0
       -0.7372666 -1.1580645 3.85104 -2.7624729
0000e0 79 9a c4 bf d9 c0 a8 3f b0 a1 93 c0 ef 3e ad 3f
       -1.5359641 1.3183852 -4.6134872 1.3534831
0000f0 85 c9 47 40 53 be df bf d1 51 64 40 4c 01 76 c0
       3.1216748 -1.7479957 3.5674937 -3.8438292
000100 c9 bc a6 bf 89 6a c7 3f 43 02 01 c0 56 db 54 40
       -1.3026363 1.5579387 -2.015763 3.3258872
000110 52 38 8b c0 17 fe 93 bf 61 1e 8e 40 75 45 1e 40
       -4.350625 -1.1561917 4.4412084 2.4729893
000120 0f 94 25 be 5a 3f 82 40 a8 6d 21 c0 25 36 59 40
       -0.16169761 4.0702333 -2.522318 3.3939297
000130 69 ba bf 3f 22 81 13 40 37 2d 38 c0 5d b1 1a 3f
       1.4978763 2.3047566 -2.8777597 0.60426885
000140 63 b6 95 bf
       -1.1696285
