modelwoOperator_fold_3_shift_5.pt (torch, 2466 bytes, 2 tensors)

encoder.0.weight f4 [9, 8]
7.136106 -28.910055 -22.36986 12.552609 7.0179806 -28.679422 -22.517483 12.562484
5.2266765 6.580874 4.075859 5.976746 4.1420593 7.623604 4.0003214 4.903811
-6.205317 -6.274405 -6.139226 -5.3534307 -6.251273 -6.076944 -6.273847 -5.687109
-3.4143424 -7.4328303 -3.2666483 -4.309151 -6.352953 -2.353161 -6.254807 -3.824366
-7.102824 -2.1908963 -5.5080776 -4.1769753 -3.6818607 -7.362347 -2.8195386 -4.1636615
2.3264885 2.4883718 6.3222876 6.6673627 4.5868382 0.9229689 6.232557 8.550437
-22.80812 11.617306 7.7926393 -27.995295 -22.94833 12.07804 7.3837066 -27.798733
-20.03863 -19.559961 -20.412243 -18.869081 -19.789078 -19.901344 -20.142784 -18.95284
4.9360876 4.2023206 5.0410495 5.7079363 4.037167 5.523324 4.509918 5.127025
00000000: fb5a e440 cb47 e7c1 79f5 b2c1 7dd7 4841
00000010: 4c93 e040 756f e5c1 ce23 b4c1 efff 4841
00000020: ef40 a740 8596 d240 706d 8240 8141 bf40
00000030: c08b 8440 90f4 f340 a202 8040 05ec 9c40
00000040: f591 c6c0 edc7 c8c0 8a74 c4c0 4e4f abc0
00000050: 6e0a c8c0 5376 c2c0 5bc3 c8c0 ccfc b5c0
00000060: 9684 5ac0 bfd9 edc0 c410 51c0 91e4 89c0
00000070: 644b cbc0 319a 16c0 6127 c8c0 6ac2 74c0
00000080: 564a e3c0 a537 0cc0 2c42 b0c0 c8a9 85c0
00000090: 9ba3 6bc0 5998 ebc0 5273 34c0 b73c 85c0
000000a0: 30e5 1440 7c41 1f40 2e50 ca40 095b d540
000000b0: 61c7 9240 b147 6c3f 1b71 c740 97ce 0841
000000c0: 0877 b6c1 7ce0 3941 4d5d f940 5df6 dfc1
000000d0: 2e96 b7c1 a73f 4141 5347 ec40 ce63 dec1
000000e0: 1d4f a0c1 cd7a 9cc1 464c a3c1 e1f3 96c1
000000f0: 0850 9ec1 f435 9fc1 6c24 a1c1 6b9f 97c1
00000100: 6ef4 9d40 6979 8640 4750 a140 6aa7 b640
00000110: 7930 8140 12bf b040 4051 9040 9710 a440

classifer.0.weight f4 [9, 9]
-24.086796 5.675716 -5.821788 -16.25889 -19.434038 10.224983 -23.423237 80.798325
8.638372 -11.570258 3.7344077 -5.9925923 -2.0709236 -2.053063 2.577064 -11.650634
-3.833404 3.2745864 -8.80519 1.2239168 1.3995593 4.1498146 4.5988894 -0.7419641
-9.010376 -23.938597 -0.13890916 23.382652 0.12188532 -20.263775 -13.378075 -9.347132
-1.6885072 22.900404 -29.18966 -0.42583385 6.591945 -9.704335 10.584326 9.138019
8.313995 -9.795068 6.4366393 9.30475 -10.121869 3.0240097 -1.4000926 0.8688083
1.6636146 2.5363076 -3.12059 2.7465584 -20.518671 -2.3297956 0.65181476 -2.8464744
4.164627 4.0906754 4.500665 -4.0072126 0.44020468 -10.84829 -3.5527601 -4.625639
5.0684175 -14.513154 -14.744589 -14.668502 6.206232 -4.482695 15.743947 6.006832
22.210817 -42.262035 32.715767 25.46732 22.231737 -37.1329 22.41383 66.89737
-39.082275
00000000: c2b1 c0c1 779f b540 164c bac0 3512 82c1
00000010: e978 9bc1 8899 2341 ca62 bbc1 be98 a142
00000020: c636 0a41 c71f 39c1 8900 6f40 51c3 bfc0
00000030: 038a 04c0 6265 03c0 9eee 2440 ff68 3ac1
00000040: 7e56 75c0 d392 5140 0fe2 0cc1 4ea9 9c3f
00000050: c224 b33f 48cb 8440 1a2a 9340 5cf1 3dbf
00000060: 802a 10c1 3f82 bfc1 343e 0ebe ac0f bb41
00000070: 039f f93d 361c a2c1 980c 56c1 da8d 15c1
00000080: 0121 d8bf 0734 b741 6c84 e9c1 e506 dabe
00000090: 37f1 d240 f544 1bc1 6659 2941 5335 1241
000000a0: 2006 0541 99b8 1cc1 f3f8 cd40 42e0 1441
000000b0: 2df3 21c1 6089 4140 3c36 b3bf 396a 5e3f
000000c0: 53f1 d43f dd52 2240 bfb7 47c0 9dc7 2f40
000000d0: 3d26 a4c1 5f1b 15c0 55dd 263f a32c 36c0
000000e0: a044 8540 d0e6 8240 7305 9040 163b 80c0
000000f0: 8262 e13e 9992 2dc1 6c60 63c0 3c05 94c0
00000100: 7a30 a240 e135 68c1 d6e9 6bc1 2fb2 6ac1
00000110: 7499 c640 3d72 8fc0 35e7 7b41 f837 c040
00000120: c1af b141 530c 29c2 f2dc 0242 12bd cb41
00000130: 99da b141 1788 14c2 864f b341 74cb 8542
00000140: 4054 1cc2
