modelwoOperator_fold_2_shift_6_app1_full_features.pt (torch, 3796 bytes, 2 tensors)

encoder.0.weight f4 [9, 40]
000000 34 8a 8d 40 49 61 54 41 22 00 35 40 5b e7 b4 bf
       4.4231205 13.273751 2.828133 -1.4133104
000010 9a 27 1b bf 66 71 28 bf 22 7b 61 c0 58 8e 93 40
       -0.606073 -0.6579803 -3.5231404 4.611126
000020 cd 2a 87 40 24 84 56 41 8c 09 02 40 ef 6d 15 c0
       4.2239747 13.407261 2.0318327 -2.3348348
000030 92 a7 7c bd 82 14 ac bf d3 f4 7b c0 37 cc 87 40
       -0.061683245 -1.3443758 -3.936818 4.2436786
000040 8a bd 29 c0 6b 3a ba 40 42 d5 4a c0 29 41 d3 3f
       -2.6521935 5.819631 -3.1692662 1.650426
000050 7b a6 81 3e d9 ec e6 bf 7a 1e a5 40 23 52 bf bf
       0.25322327 -1.804103 5.1599703 -1.4946941
000060 2c 70 70 40 68 25 47 41 ed ae a2 c0 ed b8 a4 be
       3.7568464 12.446632 -5.0838532 -0.32172337
000070 df 11 9f 3f 42 b0 ff 3f e0 bf bd 3e 37 9c 98 c0
       1.2427329 1.9975665 0.37060452 -4.769069
000080 69 9e bf 40 d4 73 5b 41 fe f6 89 40 a0 70 c0 3f
       5.988087 13.715778 4.3114004 1.503437
000090 75 7c 4e 40 c1 d7 fd 3e c4 18 80 bf 36 42 93 40
       3.2263463 0.4957867 -1.0007558 4.6018324
0000a0 14 a3 04 c1 55 ae 04 c0 b1 42 4d c1 b6 14 44 c1
       -8.289814 -2.0731404 -12.828782 -12.255056
0000b0 d4 84 a2 c0 a3 a3 76 c0 51 f3 aa c1 66 d4 07 c1
       -5.0787144 -3.8537376 -21.368807 -8.489355
0000c0 08 15 ef c0 7e 0f 95 bf c4 7e 3d c1 5c 1b 32 c1
       -7.4713173 -1.1645353 -11.843449 -11.13168
0000d0 13 35 c8 c0 59 6a 8f c0 a8 08 ac c1 4c 3f 12 c1
       -6.256479 -4.481732 -21.504227 -9.140453
0000e0 b2 e4 ea 3f bd 4e 17 40 a2 25 9c 3f 91 3f 8d 3e
       1.8351042 2.3641808 1.2198985 0.2758756
0000f0 f5 ae 4f 40 6e de 8d 40 21 40 14 40 fb b7 63 3f
       3.2450535 4.433402 2.316414 0.88952607
000100 ec 93 d4 bf 8e 19 4c 3b 04 db 63 3f 3a 3a 7c c0
       -1.6607642 0.0031143161 0.89006066 -3.9410539
000110 62 7a 10 40 81 2f 84 40 d9 f3 66 c0 01 40 01 c0
       2.2574697 4.130799 -3.6086333 -2.0195315
000120 a0 89 19 c1 71 9e a0 c0 b3 20 6e c1 6f 74 47 c1
       -9.5961 -5.019341 -14.882983 -12.465926
000130 ea f9 45 c0 a4 15 7a c0 7c 33 99 c1 2d 11 40 c1
       -3.0933785 -3.9075708 -19.150139 -12.004193
000140 0d e4 c6 c0 08 30 d5 c0 88 c6 cd bf 8a 2c 82 41
       -6.215338 -6.662113 -1.6076212 16.271748
000150 b3 08 d1 40 d3 9c 5a c1 37 ea 03 41 24 f7 49 3f
       6.532312 -13.663287 8.244681 0.7889273
000160 bc ef 96 c0 32 37 04 c1 0e b3 01 c0 f5 91 64 41
       -4.7167645 -8.263475 -2.0265536 14.285634
000170 85 ba 98 40 dd 77 4a c1 cc 4f 0d 41 0e 09 51 bf
       4.7727685 -12.6542635 8.831982 -0.8165444
000180 bf ad 86 bf d3 5a d3 bf 86 b5 41 40 38 73 56 40
       -1.0521773 -1.6512092 3.0267043 3.3507824
000190 12 3e 53 40 a8 43 61 40 9b d1 58 bf 5a 3d 1a 40
       3.3006635 3.5197544 -0.8469483 2.4099946
0001a0 21 f4 fc c0 9c 00 66 c0 0c fa 34 3e 6f 61 79 40
       -7.904801 -3.5937872 0.1767351 3.8965719
0001b0 25 bb fb 3f 2c 94 8f bc 59 83 e2 c0 6d 24 6d bd
       1.9666487 -0.017526709 -7.0785336 -0.057896066
0001c0 be 89 3b c1 c2 5f 36 c1 30 87 85 c0 1e 9f 6f 41
       -11.721128 -11.398378 -4.1727524 14.976347
0001d0 28 61 98 40 3e 26 3a c1 36 b1 66 40 3b c6 61 c0
       4.76186 -11.634336 3.604566 -3.527724
0001e0 31 0c 1b c1 68 b0 67 c1 94 32 a6 c0 ca 23 e9 c0
       -9.690476 -14.480568 -5.193674 -7.285619
0001f0 05 b2 1e c0 c2 9c 92 41 3c 3b 90 41 4c 77 4a c1
       -2.4796154 18.326542 18.028923 -12.654125
000200 72 1e 19 c1 b3 a7 5e c1 37 75 a4 c0 d6 74 e7 c0
       -9.569933 -13.915942 -5.1393085 -7.233012
000210 26 6b 21 c0 7e 55 8f 41 9b 50 91 41 bf ac 2d c1
       -2.5221648 17.916744 18.164358 -10.854674
000220 79 6e 00 40 0b be 03 40 39 af 22 bf e7 d1 e2 bf
       2.0067427 2.0584743 -0.6354862 -1.7720307
000230 64 db f0 3f 10 0e 20 40 b2 7d 78 40 05 da f9 be
       1.8816953 2.5008583 3.8826718 -0.48799148
000240 27 f3 1b c0 6f cb bc 3d 4e d4 0f c0 34 f5 d1 c0
       -2.4367158 0.092184894 -2.247333 -6.561182
000250 5d b2 16 3e 8d 3e 42 40 80 1b 01 41 dc a9 b5 c0
       0.14716478 3.0350678 8.069214 -5.676985
000260 4e 1e 1b c1 7c 79 63 c1 14 e2 e8 c0 cc 9c 02 c1
       -9.694899 -14.217159 -7.2775974 -8.1632805
000270 6b 66 bc bf be 9d 7e 41 46 c7 87 41 f0 3b 54 c1
       -1.4718755 15.913511 16.972301 -13.264633
000280 5f 79 1b c1 4c 22 28 41 ac 3e 30 41 0d 0e 6f c1
       -9.717132 10.508373 11.015301 -14.94093
000290 01 23 1b c1 32 63 b5 c0 1b 71 79 c1 1e 6e fc c0
       -9.696046 -5.668359 -15.590114 -7.888442
0002a0 ca 3e 1a c1 21 dc 33 41 89 7b 41 41 c9 da 65 c1
       -9.640329 11.241242 12.09266 -14.365914
0002b0 30 59 23 c1 99 ce cd c0 d9 db 7f c1 89 00 0c c1
       -10.209274 -6.4314694 -15.991174 -8.750131
0002c0 20 ea 92 bf 67 ce 0e 40 c9 25 6b 3f a1 2d e7 3e
       -1.1477699 2.2313478 0.9185453 0.45152
0002d0 d0 31 65 be 05 58 07 bf 17 4e 1a bf a9 b4 c0 be
       -0.22382283 -0.5286868 -0.60275406 -0.37637833
0002e0 cf d9 cc 3f 09 07 12 40 5e 25 80 40 6e 39 62 c0
       1.600397 2.2816794 4.0045614 -3.5347552
0002f0 31 4e e8 bf 83 e7 01 40 0c d1 91 c0 5c 23 8e be
       -1.8148862 2.0297554 -4.5567684 -0.27761352
000300 35 38 04 c1 4a 06 40 41 43 e4 27 41 52 e0 53 c1
       -8.263722 12.001535 10.493228 -13.242266
000310 1f 6c c7 c0 e7 7c 8f c0 84 13 4a c1 35 a4 cc c0
       -6.2319484 -4.483997 -12.629765 -6.395045
000320 5d b4 24 41 59 b4 1d 40 5f 37 82 c1 0e 26 20 c1
       10.294034 2.4641325 -16.277037 -10.009291
000330 f8 e1 6e c0 29 ce 5e 40 70 72 6e c0 ca f1 b4 40
       -3.732542 3.481333 -3.7257347 5.6545153
000340 75 95 1b 41 e6 c2 33 40 8b 00 7f c1 2d 04 26 c1
       9.723989 2.8087707 -15.937633 -10.3760195
000350 b8 44 91 c0 27 35 64 40 5d 48 6c c0 21 a3 93 40
       -4.5396385 3.5657442 -3.6919167 4.613663
000360 27 ff 45 40 0f c5 32 c0 d2 ab 28 c0 17 01 44 c0
       3.0936983 -2.7932775 -2.635487 -3.0625665
000370 ec 9f ee be d8 16 13 3e 6a 08 24 3f 6c 97 fe 3f
       -0.46606386 0.14364183 0.6407534 1.988996
000380 99 be 69 40 33 52 d2 bf e6 b9 38 c0 aa 76 90 c0
       3.6522582 -1.6431335 -2.8863463 -4.5144854
000390 14 f3 58 bf 08 0d 0e bf 36 6c 72 40 54 68 96 40
       -0.8474591 -0.55488634 3.7878547 4.7002354
0003a0 3a 77 3b 41 a4 7f ac 40 48 4b 7d c1 c8 49 2a c1
       11.716608 5.390581 -15.830879 -10.643013
0003b0 4d f4 52 c0 01 30 2b 40 15 12 52 3e 55 77 fa 40
       -3.296161 2.674805 0.2051471 7.827067
0003c0 f2 1d 47 3f 4d ba 8b c1 d7 c0 3a c1 70 b7 29 41
       0.7778007 -17.465967 -11.67208 10.607285
0003d0 da e0 9f 40 6c 1e 0a c1 06 e0 36 41 0c 4d d3 c0
       4.9961977 -8.632427 11.429693 -6.603155
0003e0 0c 23 c3 3f b7 06 93 c1 23 57 50 c1 1c 58 f1 40
       1.524507 -18.378279 -13.021274 7.5420055
0003f0 c1 b1 d9 3f ee 19 fe c0 c2 0d 30 41 2a 26 a9 c0
       1.7007371 -7.9406652 11.003359 -5.2859087

classifer.0.weight f4 [9, 9]
000000 42 e2 0d 3d cf 4e 0f c1 d0 7c b0 c0 d1 0f e8 40
       0.034639604 -8.95674 -5.515236 7.2519307
000010 4b eb 06 c1 71 d3 e0 40 4a 7b 82 c0 b5 19 7c c0
       -8.432445 7.0258107 -4.07755 -3.939069
000020 1c a3 8f bf 6b d9 9d 40 2a c3 4b c1 e6 71 8a c0
       -1.1221652 4.9327903 -12.735147 -4.3264036
000030 23 c7 0c c1 37 64 04 41 53 6b 07 c1 00 af f4 c0
       -8.798617 8.2744665 -8.463702 -7.6463623
000040 37 4f 08 c1 3c ea 8d 40 1b 8e 20 40 a1 70 f4 3f
       -8.51934 4.434843 2.5086734 1.9096872
000050 f9 cd 1e c1 b9 53 81 c0 9a 3c 6d 40 4e d2 ce 40
       -9.925286 -4.04147 3.7068238 6.463172
000060 f6 09 21 c1 da b1 2d c0 08 83 0a c1 b7 6e 8b 3f
       -10.064932 -2.7139802 -8.65699 1.0893162
000070 f3 92 37 c0 03 05 03 40 c8 73 ab 40 b0 43 80 c0
       -2.868344 2.047181 5.3578835 -4.0082626
000080 71 49 7b c0 bf f9 18 40 dd fa f2 be 6d 5a 6d 3f
       -3.9263575 2.3902433 -0.47457018 0.92716104
000090 a3 82 87 3f 23 68 6c 40 f7 21 78 40 86 cb 27 c1
       1.0586742 3.693856 3.877073 -10.487188
0000a0 40 12 44 40 a2 0e d2 c0 5c b1 32 c1 90 1b c5 bf
       3.063614 -6.564286 -11.168301 -1.5399036
0000b0 2e c1 46 40 23 a7 29 be 9b c0 73 40 5f e3 09 c1
       3.1055408 -0.16567664 3.8086307 -8.6180105
0000c0 fa 5c bd 40 aa 37 f3 3f bb 17 90 c0 77 86 48 c0
       5.9175997 1.9001362 -4.502897 -3.133207
0000d0 b4 2c c5 c0 13 36 ca 3f 00 42 18 c0 a7 22 62 40
       -6.161707 1.5797752 -2.3790283 3.533365
0000e0 4a 69 d0 3f 10 ce f1 bf 36 3d 64 3f 48 3c f7 bf
       1.6282132 -1.889101 0.891559 -1.9315271
0000f0 1f 57 b8 3f 3e 4d 83 40 68 36 89 c0 ad be 5d 40
       1.4401587 4.103179 -4.2878914 3.464763
000100 4f c3 0f c0 17 88 0c c0 e9 50 16 c1 6c fd 03 c1
       -2.2462957 -2.1958063 -9.394753 -8.249371
000110 bb 87 af 40 ad 21 4b 3e f9 1f d2 c0 ec c4 a9 40
       5.4853187 0.19837065 -6.566403 5.3052883
000120 e3 76 17 c1 09 51 6e 3f 21 da 55 40 86 84 c9 bd
       -9.466525 0.930924 3.3414385 -0.0983973
000130 59 ff 73 c0 3b 7c 32 3f 68 30 6e 40 70 59 0d 40
       -3.8124602 0.6972081 3.7217045 2.2085838
000140 3f f0 3f 3f
       0.7497596
