modelwoOperator_fold_2_shift_4_app1_5motions_full_features.pt (torch, 3914 bytes, 2 tensors)

encoder.0.weight f4 [9, 40]
000000 8d a6 84 40 5c be 5d c0 7c dd a5 40 a1 0d 6a c0
       4.145331 -3.4647436 5.1832867 -3.6570818
000010 84 8a bc c0 ac cd 64 40 e4 8a 8c 40 3a 55 96 40
       -5.8919086 3.5750532 4.3919544 4.6979036
000020 9b 4f 87 40 f7 3a 02 c0 eb 2b b1 40 b8 2c 41 c0
       4.2284675 -2.034849 5.536611 -3.0183544
000030 28 ea af c0 25 8c 80 40 1f 75 84 40 48 3a 94 40
       -5.4973335 4.0171075 4.139297 4.6321144
000040 8d c9 8b 40 dd a9 e9 3e 47 1a f6 3f 4e bd 56 c0
       4.3683534 0.45637408 1.9226769 -3.3553042
000050 0e fb 6e c0 67 81 76 3f 4f 6a 96 3f e9 40 56 40
       -3.7340732 0.962912 1.1751193 3.3477118
000060 f0 50 a1 40 da 22 09 c0 05 56 ee bf 20 ff 3b c0
       5.04113 -2.1427522 -1.8620001 -2.9374466
000070 f6 a5 6e c0 4e 5c a0 3f b4 37 a6 40 3d cd 8a 40
       -3.7288795 1.2528169 5.1942997 4.3375535
000080 04 95 84 40 c2 df f0 bf dc 75 69 40 67 5f 71 c0
       4.1431904 -1.8818285 3.6478186 -3.771448
000090 ba f9 ac c0 6d 7d 90 3e 7e 4f 56 40 7f 7c 88 40
       -5.405484 0.28220692 3.3486018 4.2651973
0000a0 ea a4 37 c0 a8 0c ac c0 52 9b 10 c1 4e 8e d8 bf
       -2.8694406 -5.376545 -9.03792 -1.6918428
0000b0 b7 9f 12 c1 9f 94 a8 bf ec 72 8e 40 b8 84 15 c0
       -9.163993 -1.3170356 4.4515285 -2.3362255
0000c0 fd d1 fe 3f 46 68 9b c0 1e 78 0a c1 6f 0c b1 bf
       1.9907833 -4.8564787 -8.6543255 -1.383192
0000d0 35 90 fc c0 77 4b fb 3f a7 b3 ac 40 68 af 79 3e
       -7.8926034 1.9632405 5.39693 0.24383318
0000e0 b5 b3 6c 40 9d d0 8a 40 be 9e 16 40 a0 66 fe be
       3.6984684 4.3379655 2.3534389 -0.49687672
0000f0 e3 b0 42 bf 9c 72 a0 3e ad 50 1e c0 42 fc 2a 40
       -0.7605116 0.3133744 -2.473674 2.6716466
000100 86 59 32 c1 b6 9a cc 3f 01 2e 4e bf 55 19 c0 bf
       -11.146856 1.5984714 -0.80538946 -1.5007731
000110 40 fb e1 bf ce db eb c0 f7 8f 7f c0 93 31 98 c0
       -1.76548 -7.3705816 -3.993162 -4.7560515
000120 d4 de 13 c1 23 bf b6 c0 23 16 05 c1 36 05 9d c0
       -9.241901 -5.710832 -8.317904 -4.906886
000130 4a 21 39 c1 3d 80 10 c1 a9 3e ce c0 55 4d 03 c1
       -11.570627 -9.031308 -6.445149 -8.20638
000140 0a 4e 1a 40 c2 9e 95 40 28 17 dc 40 a2 06 89 3f
       2.4110131 4.6756296 6.8778267 1.0705149
000150 4b af 11 41 02 83 a7 3f 02 ec 83 c0 9b 55 63 40
       9.105296 1.3086855 -4.1225595 3.5521
000160 e4 90 43 be 67 35 7b 40 ba a7 c0 40 11 cf 16 3f
       -0.1909824 3.9251344 6.0204744 0.5890971
000170 d1 54 09 41 88 b8 b5 bf 7c 29 bd c0 2a 80 d3 3f
       8.583207 -1.419694 -5.911314 1.6523488
000180 8c 8f 3c c0 a8 b8 12 c0 18 aa aa bf 99 4a 13 bf
       -2.9462614 -2.2925205 -1.3333158 -0.575357
000190 d9 06 de 3e 9e 2b 3f 3f bf 96 89 3f 80 31 9a bf
       0.433646 0.7467593 1.0749129 -1.2046356
0001a0 04 20 0b 41 c7 23 bc bf 9e 15 26 be 45 22 98 3e
       8.695316 -1.4698418 -0.16219184 0.29713646
0001b0 96 64 dd 3f 84 23 a5 40 e2 07 e1 3f f1 ff 38 40
       1.7296321 5.1605854 1.7580531 2.8906214
0001c0 65 a2 b9 40 23 3c 96 40 c6 fb c9 40 fd ed 79 40
       5.8010736 4.694841 6.311984 3.9051507
0001d0 4a c9 22 41 f6 43 cf 40 2b c7 7d 40 22 b6 b6 40
       10.174143 6.477046 3.9652812 5.709733
0001e0 f0 ef c8 c0 62 69 05 c0 ee a4 bf 40 91 93 73 40
       -6.2792892 -2.084557 5.988883 3.8058817
0001f0 93 7f 54 40 4f 98 56 40 4f d4 4b c0 11 85 eb c0
       3.3202865 3.3530462 -3.1848333 -7.3599935
000200 74 11 c9 c0 b7 f1 3b c0 57 3a ac 40 c7 4f 56 40
       -6.2833805 -2.936628 5.3821216 3.3486192
000210 eb 4e 2f 40 a5 01 8b 3e e4 6c 8b c0 63 04 e6 c0
       2.7391918 0.27149692 -4.3570423 -7.1880355
000220 ec 8f b3 c0 86 38 9e bf ee 95 18 3e 0a 43 aa 40
       -5.6113186 -1.2361 0.14900944 5.3206835
000230 e2 af 9e 40 c8 d5 7c 3f 9f c7 04 40 5c a5 9e c0
       4.95897 0.98763704 2.074684 -4.9576855
000240 56 05 75 c0 c1 54 50 3e 67 db 41 40 bf 4f 9d 40
       -3.8284507 0.20344831 3.0290163 4.9159846
000250 0c 5d 44 40 34 45 26 40 83 f9 b3 bf a2 c5 e1 c0
       3.0681791 2.5979738 -1.406052 -7.055375
000260 a0 6e c0 c0 80 28 9c c0 1e be b7 40 be fd 70 40
       -6.013504 -4.879944 5.7419577 3.7654872
000270 9e 80 6d 40 1f d6 b3 40 ab fa 56 40 25 a6 e4 c0
       3.7109752 5.619888 3.3590496 -7.1452813
000280 8d 89 6c 40 33 f6 01 41 7f a0 f2 c0 38 52 19 3f
       3.6958954 8.122607 -7.582092 0.5989108
000290 54 57 24 41 d8 29 eb c0 10 ba 9e c0 03 44 ab 40
       10.27132 -7.348858 -4.9602127 5.352052
0002a0 92 64 28 40 2c 22 e2 40 79 0d ef c0 a8 bf 38 3c
       2.6311383 7.0666714 -7.4703946 0.011276163
0002b0 6b 23 21 41 f4 6d bd c0 79 36 75 c0 79 9b 9a 40
       10.071147 -5.919672 -3.8314497 4.8314786
0002c0 eb 55 93 bf 85 a3 5b 40 4e bf 07 c0 0c de 1e c0
       -1.1510595 3.4318554 -2.1210513 -2.4823027
0002d0 e2 cb 22 bf 0b c9 35 c0 2b 58 11 c0 41 a6 79 3f
       -0.6359235 -2.8403957 -2.2710063 0.9751931
0002e0 5d 59 f7 bd fe ae 9c 40 04 ed bb bf 26 43 eb bf
       -0.120775916 4.8963614 -1.4681706 -1.8379867
0002f0 cd be 57 40 d4 c8 a2 c0 0f c0 94 c0 c1 b6 80 40
       3.3710206 -5.087015 -4.6484447 4.022309
000300 ff 6b 89 40 fe 83 fc 40 72 0b e8 c0 48 30 0c 40
       4.294433 7.8911123 -7.251397 2.1904469
000310 9a 81 1f 41 fe da e3 c0 0e ec b3 c0 ee 54 c4 40
       9.969141 -7.1204824 -5.6225653 6.1353674
000320 61 6f 55 c0 0f 99 ee c0 ee 79 6e 40 4b 00 0a c0
       -3.334923 -7.456184 3.726192 -2.156268
000330 a6 79 33 c1 d6 ef 11 40 97 0d 92 40 bb c2 a4 c0
       -11.217199 2.2802634 4.564159 -5.148771
000340 0d 0f 9f bf 94 f5 d5 c0 7e 78 85 40 94 d2 e0 bf
       -1.2426468 -6.686228 4.1709585 -1.7564263
000350 83 71 2d c1 95 85 38 40 be de a1 40 5e 45 82 c0
       -10.840213 2.8831532 5.05844 -4.0709677
000360 9f 2b 17 40 00 44 3c 3f 6b b3 0e 40 a5 e8 1a 40
       2.3620374 0.7354126 2.2297008 2.4204495
000370 08 d3 fd 3e ad 9b a7 3d 43 b2 ee 3e c1 67 28 3e
       0.49575067 0.0818399 0.46620378 0.16445829
000380 2b 65 db c0 c4 80 63 bf a1 e2 f4 3c e2 04 20 3f
       -6.8560996 -0.88868356 0.029893221 0.6250745
000390 eb 20 10 c0 69 3e 72 c0 e1 0d 78 3f 03 0c 67 c0
       -2.2520092 -3.7850592 0.9689618 -3.6101081
0003a0 af 01 9e c0 dd b7 e7 c0 c5 7c 46 40 1b da a8 c0
       -4.9377055 -7.2411942 3.1013653 -5.276624
0003b0 21 0e 3c c1 51 5d 73 bf 8e 69 7d bf f4 37 c1 c0
       -11.753449 -0.95064265 -0.9898919 -6.03808
0003c0 68 18 6b c0 d8 49 31 c0 e2 84 ab 40 cc 3e 69 40
       -3.6733646 -2.770132 5.359971 3.6444578
0003d0 7e bf 9c 40 9e ea b1 40 6b 60 e7 3f 27 92 8a c0
       4.8983755 5.55989 1.80763 -4.330341
0003e0 e8 1e 6a c0 bd 60 2b c0 89 57 a2 40 11 0f 4d 40
       -3.6581364 -2.6777794 5.0731854 3.2040446
0003f0 7b e6 95 40 39 fe 9c 40 3f 71 ef 3f 99 e0 84 c0
       4.684385 4.906033 1.8706435 -4.1524167

classifer.0.weight f4 [9, 9]
000000 ec 65 27 40 c3 b8 50 c0 5b 58 e0 3f 75 f6 f8 bf
       2.6155958 -3.261277 1.7526964 -1.9450213
000010 97 f1 80 40 34 75 62 c0 67 af 7c c0 08 ca d6 3f
       4.029491 -3.5384035 -3.9482057 1.6780405
000020 41 95 1d 40 2e 8f 68 c0 8e bf db c0 60 c0 5b 40
       2.4622347 -3.633739 -6.867133 3.4336166
000030 fa f5 10 40 bf e2 5d 40 4a c4 b0 c0 cf 5a 3d 40
       2.2650132 3.4669645 -5.523961 2.9586675
000040 21 6d 53 c0 5e 71 c5 3f 87 9d 83 bf f4 57 63 bf
       -3.3035357 1.5425222 -1.0282449 -0.8880608
000050 be d2 80 bf 12 a4 66 bf 34 97 28 bf 1d 1a 3a bf
       -1.0064313 -0.900941 -0.6585572 -0.72696096
000060 4a 8e 0c bf d4 b4 8d bf 75 0e 5d bf 55 62 3e bf
       -0.54904616 -1.1070809 -0.86350185 -0.7436879
000070 c1 cf e3 be ac ae 74 bf 8e f6 35 bf 65 ee 4b bf
       -0.4449444 -0.9557903 -0.7107934 -0.79660636
000080 5d 45 71 bf e9 ed 27 bf 7d 93 11 bf 1b 74 88 bf
       -0.94246465 -0.655974 -0.56865674 -1.0660433
000090 60 13 0e bf 7f a7 34 bf 32 78 48 bf ec cf 5b bf
       -0.55498314 -0.7056808 -0.78308403 -0.8586414
0000a0 7d 7b 09 bf a5 a8 1d bf b9 37 7a bf a6 94 8d bf
       -0.53704053 -0.61585456 -0.97741276 -1.1060989
0000b0 1d ca 2a bf c8 1f 65 bf 6d 77 38 bf 72 a1 95 bf
       -0.6671465 -0.8950162 -0.7205723 -1.1689894
0000c0 59 bc 7a bf 01 0f 4b bf eb 22 84 bf 5f 0c 0b bf
       -0.97943646 -0.7931977 -1.0323156 -0.5431575
0000d0 66 a7 47 bf 60 81 28 bf 58 6d 50 c0 01 91 99 40
       -0.77989805 -0.6582241 -3.2566738 4.7989507
0000e0 cf 9b 16 c0 5f e5 f4 3f 7d 3d 45 bd 2a b1 9b 40
       -2.3532598 1.9132499 -0.048154343 4.8653765
0000f0 9c 38 d0 3f cf b7 78 c0 c1 a4 1b 3f c2 29 32 3f
       1.6267276 -3.8862188 0.6079827 0.6959497
000100 3e 52 b3 c0 f3 07 95 3f be 93 18 40 62 51 ac c0
       -5.6037893 1.1643051 2.3840175 -5.3849344
000110 70 87 b0 3f af 2f c3 3f 16 9f 65 40 eb 2c ba 3f
       1.3791332 1.5248927 3.5878348 1.4544958
000120 93 76 72 40 15 c4 65 40 56 c4 bf bf bf 82 57 c0
       3.7884872 3.590093 -1.4981792 -3.367355
000130 66 3e 90 bc c1 6a 20 40 06 17 58 bf 7e 32 41 40
       -0.017607879 2.5065157 -0.8441013 3.0187068
000140 f7 9c 28 c0
       -2.6345804
