modelwoOperator_fold_3_shift_7_app1_5motions_full_features.pt (torch, 3914 bytes, 2 tensors)

encoder.0.weight f4 [9, 40]
-4.631451 -4.1706767 -8.143663 -4.3228726 6.5309095 6.3174324 -7.3926673 -2.8342783
-4.658249 -4.0310984 -7.9068356 -5.4582887 6.114332 5.9919953 -8.534174 -3.584692
-1.3065017 -2.8040106 1.4915395 -0.6817731 3.77659 3.8449402 0.7166025 0.43484965
-4.092452 -4.8783655 -6.5956264 -1.9044908 5.7838664 3.7327144 0.65396124 -0.34885865
-4.767914 -4.16012 -7.5970917 -4.2902966 6.625483 6.4622893 -1.4204187 -1.3220389
1.3145252 4.7910542 -3.8790822 -3.9967272 0.68013746 2.3196156 4.4965715 4.356209
-0.65772283 5.3831115 -4.956081 -1.8495775 1.1123722 2.2963922 4.3173504 3.8763506
-1.5552101 2.3394756 -5.8495507 0.75819194 -3.050374 -3.6093256 4.399068 -1.35049
6.6821275 6.810302 -5.855776 2.6733334 2.1718533 0.77640015 5.606948 3.2038937
5.7445126 5.5275645 -2.8701165 1.249133 1.3772117 2.2679744 4.2434335 4.445663
1.7229419 5.7867017 1.9357554 1.175343 5.2328615 6.3913145 5.418265 5.348262
0.7869723 5.804535 1.6288176 3.085985 5.7381134 6.146233 5.380175 5.4800663
-1.9501966 -0.13381277 -1.6129687 0.55995864 -1.6496371 -0.6975155 -0.25807044 -1.5263486
1.0841163 0.8026732 1.7332937 3.405521 5.169197 3.3831449 2.1094291 0.6675633
4.009046 6.7986007 3.0900257 3.2234826 5.533453 6.496894 5.791763 6.1608534
4.1128855 2.774492 8.676326 7.0697346 -5.2794294 -5.7680535 8.214524 2.6286287
4.3429017 2.5855012 8.501657 7.3722577 -4.8584495 -5.172845 8.979604 3.996095
1.2846823 1.5387826 3.3465235 1.4848127 -2.816592 -2.1626375 -3.52293 0.5544729
1.5030816 2.4847012 7.5151153 3.23756 -5.2376804 -2.647632 -4.307814 -0.8551265
4.054535 3.8334634 8.362034 5.897065 -6.126641 -6.129499 3.4031074 1.1651603
3.1269007 8.187489 -5.7611623 -6.5801587 -6.308272 -5.29314 -8.632743 -4.0662346
2.2153647 8.17659 -5.2294536 -6.777557 -6.6386485 -5.708199 -9.057174 -5.300713
0.99502164 2.8946571 -3.347042 -1.8817168 -2.2903428 -4.4025464 4.154481 -1.0274041
4.809513 5.56014 -3.7051544 -3.806902 -3.668157 -5.6690516 4.941771 0.5889286
4.112732 7.9403186 -5.004269 -5.6780486 -4.7060566 -4.21755 -7.5076733 -4.7795095
4.4535837 7.6265388 4.9221287 1.7693493 -4.1349006 -3.8129492 -3.4193268 -1.0976299
4.4479294 7.4429884 5.242106 2.0880673 -3.8588963 -3.7188067 -3.1701026 -0.66858375
0.96734303 1.5101675 2.9689023 -0.9741745 -1.6081897 -1.8456196 -2.1965148 -0.48277274
1.3264759 3.1580844 5.7862782 -0.4336935 -3.1265619 -2.7153134 -2.2059495 -2.1122367
5.030559 7.6869326 5.31333 0.06590087 -3.7107491 -3.7510283 -3.1623757 -1.6310322
-4.335103 -10.31353 -5.922522 -3.564226 -6.6901884 -5.7036576 -7.073481 -6.802674
-3.1578376 -10.018046 -5.5950446 -6.580754 -7.491158 -5.643958 -7.1688366 -7.3108454
00000000: d934 94c0 2f76 85c0 724c 02c1 f954 8ac0
00000010: 36fd d040 6828 ca40 bb90 ecc0 d164 35c0
00000020: 6010 95c0 c2fe 80c0 cc04 fdc0 4daa aec0
00000030: 9ca8 c340 6dbe bf40 fa8b 08c1 986b 65c0
00000040: 733b a7bf e974 33c0 c4ea be3f af88 2ebf
00000050: a7b3 7140 8013 7640 4373 373f 9da4 de3e
00000060: 5ef5 82c0 921b 9cc0 5f0f d3c0 5bc6 f3bf
00000070: 6f15 b940 cbe4 6e40 016a 273f 9a9d b2be
00000080: c092 98c0 b41f 85c0 601b f3c0 1c4a 89c0
00000090: f503 d440 13cb ce40 48d0 b5bf 9238 a9bf
000000a0: 5d42 a83f 5150 9940 e242 78c0 61ca 7fc0
000000b0: 7d1d 2e3f 9574 1440 eae3 8f40 1066 8b40
000000c0: 8660 28bf 7342 ac40 3798 9ec0 f5be ecbf
000000d0: 3662 8e3f 17f8 1240 bc27 8a40 2116 7840
000000e0: 2011 c7bf f8b9 1540 852f bbc0 de18 423f
000000f0: 5439 43c0 31ff 66c0 2ac5 8c40 dbdc acbf
00000100: fdd3 d540 feed d940 8462 bbc0 e517 2b40
00000110: a5ff 0a40 29c2 463f 1e6c b340 980c 4d40
00000120: 0cd3 b740 cfe1 b040 fdaf 37c0 97e3 9f3f
00000130: 7948 b03f 7e26 1140 35ca 8740 df42 8e40
00000140: 5c89 dc3f a92c b940 d5c6 f73f a471 963f
00000150: 9a73 a740 a685 cc40 6d62 ad40 f624 ab40
00000160: 0477 493f c0be b940 187d d03f c780 4540
00000170: a09e b740 f1ad c440 652a ac40 b45c af40
00000180: 0ba0 f9bf 3706 09be c275 cebf 7359 0f3f
00000190: 4f27 d3bf 6090 32bf cf21 84be 645f c3bf
000001a0: 53c4 8a3f fe7b 4d3f 91dc dd3f 0ef4 5940
000001b0: 106a a540 7285 5840 e300 0740 6ee5 2a3f
000001c0: 1b4a 8040 238e d940 fbc2 4540 8a4d 4e40
000001d0: 0c12 b140 8ee6 cf40 1f56 b940 b625 c540
000001e0: c29c 8340 4791 3140 3bd2 0a41 443b e240
000001f0: 16f1 a8c0 e593 b8c0 b16e 0341 743b 2840
00000200: 0df9 8a40 da78 2540 c906 0841 89e9 eb40
00000210: 6b78 9bc0 f287 a5c0 75ac 0f41 05c0 7f40
00000220: 7870 a43f d4f6 c43f 712d 5640 580e be3f
00000230: 0b43 34c0 a768 0ac0 af77 61c0 f0f1 0d3f
00000240: fa64 c03f 5805 1f40 d37b f040 2f34 4f40
00000250: 149b a7c0 cd72 29c0 9dd9 89c0 92e9 5abf
00000260: c0be 8140 7757 7540 e4ca 0541 c2b4 bc40
00000270: 710d c4c0 db24 c4c0 83cc 5940 f923 953f
00000280: 241f 4840 f4ff 0241 715b b8c0 a990 d2c0
00000290: 5ddd c9c0 6761 a9c0 b71f 0ac1 981e 82c0
000002a0: 89c8 0d40 50d3 0241 af57 a7c0 bfe1 d8c0
000002b0: cf6f d4c0 91a9 b6c0 2fea 10c1 719f a9c0
000002c0: bdb9 7e3f 1042 3940 f035 56c0 19dc f0bf
000002d0: fa94 12c0 a9e1 8cc0 82f1 8440 fa81 83bf
000002e0: 88e7 9940 abec b140 4021 6dc0 48a4 73c0
000002f0: 16c3 6ac0 df68 b5c0 fd22 9e40 06c4 163f
00000300: 809b 8340 1717 fe40 f922 a0c0 93b2 b5c0
00000310: 0498 96c0 2bf6 86c0 dc3e f0c0 bef1 98c0
00000320: c283 8e40 9b0c f440 1482 9d40 0a7a e23f
00000330: 1b51 84c0 5c07 74c0 40d6 5ac0 237f 8cbf
00000340: 7055 8e40 f62c ee40 55bf a740 e5a2 0540
00000350: 28f8 76c0 ee00 6ec0 f6e2 4ac0 4e28 2bbf
00000360: cba3 773f 2b4d c13f 7f02 3e40 8063 79bf
00000370: 29d9 cdbf 433d ecbf b393 0cc0 fd2d f7be
00000380: f6c9 a93f 0e1e 4a40 3129 b940 130d debe
00000390: 9719 48c0 b2c7 2dc0 472e 0dc0 e32e 07c0
000003a0: 57fa a040 5afb f540 cd06 aa40 09f7 863d
000003b0: ea7c 6dc0 d910 70c0 5d64 4ac0 aac5 d0bf
000003c0: 2ab9 8ac0 3804 25c1 4d85 bdc0 471c 64c0
000003d0: 0616 d6c0 5d84 b6c0 f559 e2c0 81af d9c0
000003e0: 031a 4ac0 eb49 20c1 9b0a b3c0 8995 d2c0
000003f0: 91b7 efc0 4e9b b4c0 1c67 e5c0 72f2 e9c0

classifer.0.weight f4 [9, 9]
4.7968526 2.8218522 1.8468788 -5.0779457 0.16321743 -3.3529055 -1.0165635 2.3243139
-1.8714199 -3.5667996 0.8730265 2.138299 2.8323407 3.6030402 4.2159047 -6.7019925
-4.2304754 -5.873555 -0.75116426 -0.84079313 -1.1632212 -0.7449682 -0.62119776 -1.0401216
-0.45966974 -0.61199266 -0.3826088 -0.6580535 -0.6841219 -1.1218506 -1.0601199 -0.8128508
-0.56677574 -0.70655483 -0.67454 -0.5751019 -1.006779 -0.7647176 -1.0752901 -1.0261779
-1.1622629 -0.7962223 -0.7988837 -1.1419612 -0.41588572 -0.5641039 -1.1076343 -1.1002816
-1.0804651 -0.92089915 -0.7665263 -0.67865974 -0.68088007 -0.7971756 -2.4567513 1.2576245
-1.6714159 -0.31117558 3.763773 0.6705396 5.325291 -3.5919714 2.4093091 -3.805121
1.6134281 1.6902113 4.5181923 -4.067974 -0.85664916 -2.7263787 3.9216905 -1.8810463
3.6208837 -3.8311665 -2.3965142 0.003387421 -2.6005206 1.1412612 2.7123313 2.9559689
3.6610198
00000000: d17f 9940 3a99 3440 8666 ec3f 887e a2c0
00000010: 7822 273e 0196 56c0 c11e 82bf 8fc1 1440
00000020: b08a efbf 7246 64c0 aa7e 5f3f e4d9 0840
00000030: 1245 3540 3698 6640 b1e8 8640 b976 d6c0
00000040: 0e60 87c0 2af4 bbc0 4d4c 40bf 383e 57bf
00000050: 6fe4 94bf 3cb6 3ebf d106 1fbf b422 85bf
00000060: d559 ebbe 8dab 1cbf 4de5 c3be 3276 28bf
00000070: 9d22 2fbf cd98 8fbf 02b2 87bf fd16 50bf
00000080: 3718 11bf c7e0 34bf a7ae 2cbf e139 13bf
00000090: 22de 80bf 88c4 43bf 1ba3 89bf cc59 83bf
000000a0: 08c5 94bf 3ad5 4bbf a483 4cbf c92b 92bf
000000b0: f9ee d4be 1d69 10bf f6c6 8dbf 07d6 8cbf
000000c0: ae4c 8abf 0cc0 6bbf 113b 44bf a5bc 2dbf
000000d0: 284e 2ebf b313 4cbf 6a3b 1dc0 d7f9 a03f
000000e0: f5f0 d5bf 6852 9fbe a8e1 7040 7ca8 2b3f
000000f0: c968 aa40 dce2 65c0 1f32 1a40 1a87 73c0
00000100: d084 ce3f d858 d83f 0895 9040 d82c 82c0
00000110: 5c4d 5bbf fd7c 2ec0 fafc 7a40 20c6 f0bf
00000120: 8fbc 6740 d531 75c0 7d60 19c0 7eff 5d3b
00000130: ee6e 26c0 d914 923f d696 2d40 982e 3d40
00000140: 264e 6a40
