modelwoOperator_fold_1_shift_3_app1_5motions.pt (torch, 2614 bytes, 2 tensors)

encoder.0.weight f4 [9, 8]
00000000: 2d72 7941 dac6 cd40 a1b1 3841 0e56 7fc1
00000010: 6776 77c1 28d5 8cc1 d3d1 92c1 24d9 16c1
00000020: 32ff 4dc1 a041 b940 cda0 0540 8bdc 6741
00000030: 1e24 6641 ce5d 8641 ac43 4e41 d571 9f40
00000040: 4295 27c1 ba80 84c1 3f3d 2fc1 c13c 77c1
00000050: 7919 afbf 4cdc 8a41 0f68 28bf 70be d0bf
00000060: 4a97 5d41 1b2c 8541 3653 5d40 ba23 5241
00000070: bb02 4ec1 2c86 9cc1 2277 dac0 623c c840
00000080: f01b 13c1 28f1 e13f baca 80c1 ebcc 8741
00000090: 0e84 ec3f f416 84c1 f2d6 8441 f1aa 7f41
000000a0: 2615 e2bf eb2b 5fc1 870f 3fc1 e9a8 56c1
000000b0: 113b 3cc1 ef33 4bc1 ef5e b8c0 30a4 ed3f
000000c0: 2be9 d2c0 5b5c 3241 34c7 2441 8736 5f41
000000d0: 778a 5e41 3bcd 6741 a4f7 1c41 b3c8 f23f
000000e0: e660 8a40 a75c 2141 fef3 5a41 ae14 2e41
000000f0: c7a2 6041 4e52 7441 ba98 2d40 4fce b1c0
00000100: 906f 9fbf 9e29 82c1 4ef7 3641 ff04 93c1
00000110: f622 f33f 5bdd 9541 1f5d 36c1 40d3 4ec1
15.590375 6.430524 11.543366 -15.958509 -15.466407 -17.60408 -18.352453 -9.428013
-12.874804 5.789261 2.0879395 14.4913435 14.383818 16.795803 12.891521 4.9826455
-10.47394 -16.562855 -10.952453 -15.4523325 -1.3679649 17.357567 -0.6578378 -1.6308117
13.849436 16.646536 3.4582038 13.133722 -12.875667 -19.565514 -6.8270426 6.257371
-9.194321 1.765172 -16.098988 16.975058 1.84778 -16.511208 16.604954 15.979234
-1.7662704 -13.948222 -11.941291 -13.416238 -11.7644205 -12.700179 -5.7615886 1.8565731
-6.590963 11.147548 10.298634 13.950812 13.908805 14.487605 9.810459 1.8967499
4.3243284 10.08512 13.684568 10.880049 14.039741 15.270094 2.7124467 -5.556434
-1.2455921 -16.27032 11.435377 -18.37744 1.8995044 18.733084 -11.397735 -12.926575

classifer.0.weight f4 [9, 9]
00000000: 5941 f640 cb9e 4fbf 3db4 c8c0 7a9a 8c40
00000010: 4614 ccc0 5382 4bc0 8a8e 1e3f b8f4 de3f
00000020: 22d5 163f 90ee d0c0 47b8 0c40 686b 6740
00000030: 0857 e5c0 9742 bcc0 789c c0c0 9496 1b40
00000040: 61fc 1040 11a1 9640 4fe3 b1bf aa77 b5bf
00000050: c1fa 6cbf 2882 8dbf a6a5 7dbf 4688 a5bf
00000060: 3f49 aebf 54a8 9ebf fc32 b8bf 11a6 b7bf
00000070: 538a c9bf b816 b9bf 6618 73bf 71f6 68bf
00000080: d6d9 2fbf 1438 9dbf 16a9 b7bf 4e5b 92bf
00000090: cfcb 8dbf 975c c2bf 9ab5 91bf c019 a1bf
000000a0: ec88 9dbf 4907 58bf 2719 9abf 0bab b5bf
000000b0: cc8e bebf a16e 8cbf e4bf d6bf 3957 73bf
000000c0: 06eb a7bf 4b85 8cbf b272 71bf 224a c6bf
000000d0: e523 d7bf ec7f bdbf bdea 05bf 15e1 0c3f
000000e0: d713 4740 c985 12c0 30f3 ae3e 2d8b 683f
000000f0: 8144 c73e bbe3 fd3e 2a25 4440 a74c 82c0
00000100: 5b31 4340 5617 b2c0 aeed 5640 374f c240
00000110: eaed 80c0 909b 2340 9833 9d3f 8274 e1c0
00000120: 8506 a640 ed61 88c0 93d5 a440 af5e 7040
00000130: 6eb3 e740 fcd9 1641 f9ae 9ac0 8b61 9cc0
00000140: a6bf d6be
7.695477 -0.81101674 -6.2720017 4.393857 -6.377475 -3.1798294 0.6193625 1.7418432
0.58918965 -6.5291214 2.1987474 3.6159306 -7.166874 -5.8831286 -6.0191 2.4310656
2.265404 4.7071614 -1.3897494 -1.4177144 -0.9257012 -1.1055346 -0.99080884 -1.2932212
-1.3616103 -1.239512 -1.4390559 -1.4347554 -1.5745338 -1.4460058 -0.94959104 -0.9100104
-0.68691766 -1.2282739 -1.4348476 -1.1434114 -1.1077822 -1.5184506 -1.1383545 -1.2585983
-1.230741 -0.84386116 -1.2038926 -1.4192823 -1.4887328 -1.0971261 -1.677731 -0.95054966
-1.3118598 -1.0978178 -0.94315636 -1.5491374 -1.6807829 -1.4804664 -0.5231131 0.5503095
3.110586 -2.2894156 0.34169912 0.90837365 0.38919452 0.49587807 3.0647683 -4.071857
3.0498874 -5.5653486 3.3582568 6.07217 -4.0290422 2.5563698 1.228137 -7.045472
5.188296 -4.261954 5.151071 3.755779 7.240653 9.428219 -4.833859 -4.886907
-0.4194309
