Operator_folder/classifier.pt (torch, 1962 bytes, 2 tensors)

encoder.0.weight f4 [9, 8]
-6.7161016 -10.301131 1.2040323 -6.9387016 -2.0595052 -3.0346062 -0.84580326 7.441702
4.642106 3.8578522 6.2245016 5.0669894 -2.3383186 2.2020884 -1.6474836 -1.8533429
4.083182 0.08521551 8.496199 5.1222615 -13.443004 -4.299355 -0.31621733 -4.3177233
9.889149 -12.806644 -8.090817 -15.005772 -1.5680041 8.07326 -0.38275966 8.41348
-3.2889378 -2.5442693 -8.189091 -5.455556 13.9756775 4.261611 1.5630746 4.985678
3.449365 0.8592444 14.832733 8.070168 -1.4237671 -4.91636 -3.854235 -8.996397
3.9433932 0.84236705 7.9443913 5.705539 -13.566228 -4.638647 -0.44059333 -4.493729
-2.6420476 -11.723551 -6.0105805 -1.7574005 1.1522802 2.4584634 10.5978775 1.3837852
-8.733068 13.838776 1.111947 -0.18544316 12.527305 4.8357425 -3.8951511 0.26572597
00000000: 4eea d6c0 6fd1 24c1 bb1d 9a3f d809 dec0
00000010: efce 03c0 fd36 42c0 9086 58bf 6c22 ee40
00000020: 228c 9440 0de7 7640 1e2f c740 c724 a240
00000030: 03a7 15c0 04ef 0c40 bee0 d2bf 573a edbf
00000040: 6da9 8240 7885 ae3d 6ef0 0741 91e9 a340
00000050: 8b16 57c1 5194 89c0 3de7 a1be ca2a 8ac0
00000060: f439 1e41 04e8 4cc1 fd73 01c1 a417 70c1
00000070: 5cb4 c8bf 132c 0141 13f9 c3be 9d9d 0641
00000080: f57d 52c0 4fd5 22c0 8406 03c1 ea93 aec0
00000090: 609c 5f41 1e5f 8840 d412 c83f ad8a 9f40
000000a0: 65c2 5c40 71f7 5b3f e052 6d41 681f 0141
000000b0: 003e b6bf d252 9dc0 c9ab 76c0 3ef1 0fc1
000000c0: 8e60 7c40 5ea5 573f 7438 fe40 c793 b640
000000d0: 450f 59c1 cc6f 94c0 7395 e1be a1cc 8fc0
000000e0: 4f17 29c0 aa93 3bc1 ad56 c0c0 80f2 e0bf
000000f0: eb7d 933f 7757 1d40 e890 2941 e01f b13f
00000100: a6ba 0bc1 a06b 5d41 4754 8e3f d0e4 3dbe
00000110: d76f 4841 67be 9a40 284a 79c0 3c0d 883e

classifer.0.weight f4 [3, 9]
-6.3795843 2.6076221 1.8835069 5.374622 -3.440539 -0.27769965 1.7484092 -6.215045
3.540304 1.9736 -3.3830645 -4.7733026 0.6347266 4.3723927 -1.8916826 -5.0400023
0.6016967 3.7046242 3.393217 -0.76038384 0.8425235 -5.6271133 -1.1895478 0.773703
0.41266385 4.200416 -6.5601373
00000000: 8e25 ccc0 48e3 2640 c116 f13f e7fc ab40
00000010: ca31 5cc0 a62e 8ebe dfcb df3f a6e1 c6c0
00000020: 5794 6240 ed9e fc3f 2184 58c0 e5be 98c0
00000030: 717d 223f a4ea 8b40 a822 f2bf b347 a1c0
00000040: cc08 1a3f 9018 6d40 782a 5940 84a8 42bf
00000050: 9faf 573f 5011 b4c0 1a43 98bf 6611 463f
00000060: ad48 d33e cf69 8640 a5ec d1c0
